HW6/my_best_model_rotate_88.214.pth (torch, 250423 bytes, 10 tensors)

0.weight f4 [6, 1, 5, 5]
0.14768596 0.2599413 0.2579644 -0.22127813 0.14181091 -0.66437906 -0.24541324 0.508814
-0.301474 -0.32340315 -0.18143147 -0.6212738 1.1174439 1.152107 -0.5113839 0.82663035
-2.0918632 0.3631735 1.0216103 -0.046748366 0.6407598 -0.58598465 -0.94920874 0.3627937
-0.074591786 0.21136765 0.15443708 1.2556903 0.7595554 -0.22685419 0.13833001 0.01636955
-0.3178632 -1.7467171 -0.7967783 -0.16931236 -0.6145413 -1.2045063 -0.70799494 0.23421513
-0.12410129 -0.0264134 0.48857722 1.084583 0.9247708 0.20948695 0.12596148 0.1251948
0.22155009 -0.22638947 -0.2036635 -0.014166813 -0.14187853 0.068909325 0.17772561 -0.15095186
-0.20384885 -0.12130579 0.109844744 0.13326968 -1.4841042 -0.58235407 0.27459472 0.37057015
0.16597484 -0.5656288 -0.18703584 -0.20054318 -0.046015527 0.34110296 -0.12754272 -0.12929527
0.04390723 0.1705325 0.39769006 0.39717248 -0.4228433 -0.72840655 0.24762984 0.52938026
1.0204747 0.4464345 -1.2267227 -0.9659254 0.13279478 0.7149752 1.2136306 0.012512702
-1.0909762 -0.37706506 0.19972831 1.1197354 1.0083301 0.51669556 -0.13892864 -0.27750662
-0.061660737 -0.09104192 0.13543743 -0.021617962 1.2356216 0.45807576 -0.97860026 -0.1828657
0.11127925 1.3313787 -0.76851404 -1.5843993 0.7275892 0.12217548 0.46417454 -1.0607331
-0.39252287 1.0118656 -0.08338739 0.047624707 -0.2774211 0.23144358 0.24631672 -0.20393707
0.06614112 0.0058832406 -0.06680994 -0.10854023 -0.12998903 0.34952065 0.116932414 0.37359536
0.019951526 -0.20333944 -0.44199067 -0.17103629 1.0821493 1.2820189 0.6415731 -0.35064858
-0.87766385 -1.5006049 -0.41183218 0.1209956 0.1659714 0.2260848 -0.71717614 -1.2618754
-0.57078034 0.11401788 0.42424086 0.89000744 0.5590945 -0.30070692
00000000: fd3a 173e 0717 853e e913 843e bc96 62be
00000010: e136 113e bf14 2abf 9c4d 7bbe a241 023f
00000020: cd5a 9abe 1995 a5be 2cc9 39be cd0b 1fbf
00000030: 6708 8f3f 3e78 933f 0eea 02bf 0c9e 533f
00000040: 16e1 05c0 e1f1 b93e 20c4 823f 377b 3fbd
00000050: d608 243f 1703 16bf 58ff 72bf 19c0 b93e
00000060: 94c3 98bd c370 583e c124 1e3e 76ba a03f
00000070: 3972 423f 774c 68be 62a6 0d3e 6f19 863c
00000080: f7be a2be 6d94 dfbf aaf9 4bbf 3860 2dbe
00000090: 9452 1dbf 432d 9abf 283f 35bf 17d6 6f3e
000000a0: d128 febd ea60 d8bc cb26 fa3e 9ed3 8a3f
000000b0: c7bd 6c3f bf83 563e 0cfc 003e 1133 003e
000000c0: 07de 623e a4d2 67be 2a8d 50be ec1b 68bc
000000d0: 9b48 11be 5520 8d3d b4fd 353e 2093 1abe
000000e0: c1bd 50be 2c6f f8bd 48f6 e03d d977 083e
000000f0: 20f7 bdbf 2815 15bf ae97 8c3e 5fbb bd3e
00000100: 4ff5 293e 0dcd 10bf 5386 3fbe 315b 4dbe
00000110: c77a 3cbd 0ca5 ae3e 8f9a 02be fb65 04be
00000120: 11d8 333d 12a0 2e3e 089e cb3e 315a cb3e
00000130: eb7e d8be da78 3abf ad92 7d3e 7785 073f
00000140: ea9e 823f 1093 e43e 4005 9dbf e346 77bf
00000150: 5bfb 073e 9d08 373f 3f58 9b3f 1302 4d3c
00000160: 1ca5 8bbf ac0e c1be 9485 4c3e 7d53 8f3f
00000170: f610 813f 2946 043f 4f43 0ebe 5915 8ebe
00000180: f88f 7cbd 3074 babd 1cb0 0a3e 2718 b1bc
00000190: d928 9e3f e888 ea3e 8c85 7abf 2541 3bbe
000001a0: 60e6 e33d 9e6a aa3f 56bd 44bf 99cd cabf
000001b0: 4943 3a3f 2337 fa3d 49a8 ed3e 1ac6 87bf
000001c0: c2f8 c8be d084 813f 02c7 aabd 2012 433d
000001d0: 230a 8ebe 8cff 6c3e 733a 7c3e e1d4 50be
000001e0: ff74 873d 33c8 c03b a6d3 88bd 574a debd
000001f0: d81b 05be 5ff4 b23e 437a ef3d e447 bf3e
00000200: 6271 a33c 3738 50be 9a4c e2be 2324 2fbe
00000210: de83 8a3f 3219 a43f 223e 243f 3688 b3be
00000220: 94ae 60bf d213 c0bf abdb d2be 8bcc f73d
00000230: 68f4 293e c682 673e db98 37bf 2285 a1bf
00000240: a91e 12bf 3582 e93d 1936 d93e 87d7 633f
00000250: d120 0f3f 42f6 99be

0.bias f4 [6]
-0.5967342 -0.22037993 1.7346774 -2.5902762 -0.49958602 -0.08261163
00000000: 93c3 18bf 47ab 61be e909 de3f 16c7 25c0
00000010: bdc9 ffbe 4930 a9bd

3.weight f4 [16, 6, 5, 5]
-1.3475598 -1.3470149 0.8676166 0.31590962 0.03058077 1.9920876 2.6855223 -0.18587612
0.6833277 1.5056655 0.30406162 0.8149754 -1.4523991 -0.68173814 -1.3571215 -1.1986082
-2.776193 -0.60580826 -1.6041895 0.43327507 -0.045481373 -0.17357607 0.08177107 -0.14967448
0.20478953 0.9991552 -0.55650234 -0.2993275 1.4657687 0.3089841 -0.2634605 0.3725076
-0.16097806 0.67810965 0.27459773 -2.0733979 -1.2834309 0.01607651 0.29963666 -1.9566052
-0.8249834 -2.4065938 0.69334245 0.23630156 0.5622574 1.1570988 -1.9965767 -0.36345887
0.6400921 0.47941267 -0.30772528 -1.6114051 1.1077713 0.34708753 -1.0801301 -0.038293328
-0.6204961 -1.582203 1.1155589 -0.35373172 0.9034727 2.2941558 -0.5429462 0.04842072
-0.9330995 0.12602308 0.5786149 -1.9478726 -4.562439 -2.250312 -0.63709664 -2.6016526
0.25374767 0.87202567 1.0161961 -0.29554778 -0.09938219 0.48196346 -0.46575156 -0.14966065
0.7107109 -1.6849065 -0.16939908 -0.28813443 0.28774387 -0.94314593 -1.0648358 -0.06225208
0.52108175 0.31782073 -1.1029812 -1.2545495 -1.3433633 -1.9220092 -0.9815776 -0.13582164
-3.144116 -0.8644457 -1.4936489 -0.5129906 0.78670245 0.09514627 -0.5961167 -0.33959135
-1.4003441 -0.42089275 -1.1497834 -0.06840936 1.3551065 0.589763 -0.549543 -1.5264106
0.28988764 2.8429983 0.6453359 0.7260391 3.3846316 -0.43596032 -1.5753143 0.040548284
0.8440306 -0.37373793 -2.9408984 0.44294664 0.5572631 0.24281876 0.08918039 0.36169565
-0.3877747 0.40569583 1.0356684 0.2519338 -0.23146224 -1.9903996 -0.6143905 -1.4103055
-0.7616067 1.0356646 -1.7246323 -1.5605813 -1.2237588 -3.5792465 0.79220635 -0.42039558
0.21763062 -0.04036091 0.085554875 0.21563753 0.23940085 0.6446715 0.3873309 0.21125135
-0.18778762 -1.6170765 0.17952436 -0.2603852 -0.43320414 -2.2137492 0.019518828 0.22711928
-0.6775198 -1.0779462 0.3335234 0.013010207 1.4061317 1.103068 0.3322622 -0.40795848
-0.9051839 0.4411015 -0.36372465 -0.13292024 -0.75334954 -0.33362445 0.14130051 -0.5063945
-1.2394233 -0.9582678 0.9565481 -1.1257596 0.882475 0.030198097 -2.4102728 -0.6757244
-0.4813612 0.76670855 -1.529511 0.99713117 0.5520286 -0.63742 -3.0812867 -0.03272121
0.7751591 -0.13502547 -3.3813872 0.78849095 0.18119255 -0.43989074 -0.97592 -0.48038515
-0.6395989 -0.0060133496 0.37248665 0.53837085 -1.4782763 0.92121166 1.2694644 0.31896025
-2.3024206 -0.47934604 0.39413273 -0.95046943 -3.2603433 -0.9166435 0.026347723 -3.00965
-1.5794327 0.8351753 0.652495 -0.93154407 0.48056763 0.8280864 0.5369518 -0.94129217
-0.44244084 0.3111038 0.51275265 -0.1352372 -0.3801795 0.01808048 -1.2190301 -1.326789
-1.9539881 -0.0925697 0.29834148 -0.13643128 -1.3156402 -0.82857317 -0.86679536 -0.7551528
-0.62279254 0.98219335 0.54947454 0.7370673 -0.71692497 -0.07021242 0.4880674 -0.2725925
-0.456837 0.21902324 -0.59825546 -0.30674204 0.8463889 0.18301201 -0.94501656 0.2336843
00000000: d77c acbf fc6a acbf 1f1c 5e3f e8be a13e
00000010: 8684 fa3c bafc fe3f 99df 2b40 4f56 3ebe
00000020: 90ee 2e3f a6b9 c03f f7ad 9b3e 3aa2 503f
00000030: 37e8 b9bf 6486 2ebf 28b6 adbf fe6b 99bf
00000040: 25ad 31c0 4016 1bbf 1556 cdbf 3bd6 dd3e
00000050: ad4a 3abd edbd 31be 9777 a73d 4444 19be
00000060: 59b4 513e a3c8 7f3f f076 0ebf 7441 99be
00000070: 4f9e bb3f 2a33 9e3e 4be4 86be 51b9 be3e
00000080: 6fd7 24be 9898 2d3f 1398 8c3e 8db2 04c0
00000090: 7747 a4bf e3b2 833c fa69 993e 0a72 fabf
000000a0: 1d32 53bf a205 1ac0 e47e 313f 09f9 713e
000000b0: 1af0 0f3f d01b 943f d38f ffbf 4817 babe
000000c0: 13dd 233f 9475 f53e 2b8e 9dbe 8642 cebf
000000d0: 73cb 8d3f 75b5 b13e b441 8abf 77d9 1cbd
000000e0: d5d8 1ebf a185 cabf a2ca 8e3f 531c b5be
000000f0: fd49 673f 73d3 1240 86fe 0abf ce54 463d
00000100: 9cdf 6ebf 320c 013e 1b20 143f e453 f9bf
00000110: 80ff 91c0 1d05 10c0 c418 23bf 7a81 26c0
00000120: 37eb 813e 133d 5f3f b712 823f 0a52 97be
00000130: e488 cbbd eac3 f63e fd76 eebe a440 19be
00000140: 26f1 353f 04ab d7bf f476 2dbe 5b86 93be
00000150: 2a53 933e 0372 71bf 8a4c 88bf 09fc 7ebd
00000160: 9d65 053f 66b9 a23e 7d2e 8dbf 1495 a0bf
00000170: 54f3 abbf 6604 f6bf ab48 7bbf d414 0bbe
00000180: 3239 49c0 504c 5dbf e32f bfbf 5a53 03bf
00000190: 5565 493f 0cdc c23d 1b9b 18bf ebde adbe
000001a0: 7a3e b3bf 417f d7be 1a2c 93bf 351a 8cbd
000001b0: 2174 ad3f b5fa 163f daae 0cbf 6c61 c3bf
000001c0: 276c 943e aff3 3540 bc34 253f b3dd 393f
000001d0: ce9d 5840 3136 dfbe e6a3 c9bf f515 263d
000001e0: 6412 583f 945a bfbe ae37 3cc0 e7c9 e23e
000001f0: cba8 0e3f 7ba5 783e 35a4 b63d 2c30 b93e
00000200: 688a c6be 5db7 cf3e c890 843f 78fd 803e
00000210: 7004 6dbe 6ac5 febf b248 1dbf e484 b4bf
00000220: a8f8 42bf a890 843f c0c0 dcbf 21c1 c7bf
00000230: 21a4 9cbf 6012 65c0 09ce 4a3f 173e d7be
00000240: 90da 5e3e 7b51 25bd 6537 af3d 16d0 5c3e
00000250: 7f25 753e 3109 253f 3c50 c63e 4652 583e
00000260: 664b 40be 5dfc cebf 3cd5 373e 3551 85be
00000270: efcc ddbe 11ae 0dc0 f3e5 9f3c f591 683e
00000280: f071 2dbf 24fa 89bf 94c3 aa3e c328 553c
00000290: 20fc b33f 5531 8d3f 451e aa3e efdf d0be
000002a0: 22ba 67bf 0ed8 e13e 1e3a babe 3e1c 08be
000002b0: 84db 40bf d3d0 aabe 15b1 103e 12a3 01bf
000002c0: 6ca5 9ebf 0a51 75bf 56e0 743f e418 90bf
000002d0: e2e9 613f 0062 f73c e941 1ac0 46fc 2cbf
000002e0: fa74 f6be 0347 443f 04c7 c3bf fd43 7f3f
000002f0: bf51 0d3f f52d 23bf cd33 45c0 ad06 06bd
00000300: d470 463f 1e44 0abe a668 58c0 8bda 493f
00000310: 8a8a 393e 5c39 e1be e5d5 79bf 0bf5 f5be
00000320: c1bc 23bf a20b c5bb 92b6 be3e acd2 093f
00000330: 2838 bdbf 87d4 6b3f cf7d a23f c24e a33e
00000340: dc5a 13c0 d86c f5be c4cb c93e f751 73bf
00000350: 77a9 50c0 26a9 6abf 2ed7 d73c 1b9e 40c0
00000360: da2a cabf 0cce 553f ea09 273f ac79 6ebf
00000370: f60c f63e 78fd 533f ac75 093f 86f8 70bf
00000380: 9b87 e2be ff48 9f3e c243 033f 9f7b 0abe
00000390: e3a6 c2be 841d 943c 2e09 9cbf 39d4 a9bf
000003a0: 481c fabf 2f95 bdbd 37c0 983e a4b4 0bbe
000003b0: e666 a8bf 5f1d 54bf 4de6 5dbf b251 41bf
000003c0: 556f 1fbf 0671 7b3f 5daa 0c3f 71b0 3c3f
000003d0: 6588 37bf 87cb 8fbd f8e3 f93e 3f91 8bbe
000003e0: 8ae6 e9be a147 603e 4527 19bf 4b0d 9dbe
000003f0: f1ac 583f 8067 3b3e 9bec 71bf f04a 6f3e

3.bias f4 [16]
0.006665159 -0.014567536 -0.21490072 -0.2600941 -0.18038437 -0.029819213 -0.036572922 0.03661153
-0.0155779645 -0.15843742 -0.07640745 -0.11772438 -0.11700328 -0.52255154 -0.47863796 0.009023811
00000000: 6867 da3b adac 6ebc ef0e 5cbe 0e2b 85be
00000010: aeb6 38be 6c47 f4bc 7dcd 15bd f9f5 153d
00000020: b83a 7fbc 6b3d 22be 827b 9cbd 7b19 f1bd
00000030: 6a9f efbd f0c5 05bf 0910 f5be 9bd8 133c

7.weight f4 [120, 400]
-0.37508842 -0.7042775 -0.55431885 0.21638723 0.17956418 -0.47330555 -0.28198704 0.3417147
-0.34801432 -0.2827974 -0.2715167 -0.35846737 -0.3768712 -0.049702458 -0.24651727 -0.26689076
-0.08240056 -0.24377027 -0.3393392 -0.28169388 -0.2939512 -0.39720696 -0.28506124 -0.39265227
0.3144611 0.008157455 -0.31244302 -0.41570312 0.35011515 0.016869307 -0.31672806 -0.30154407
0.3088485 0.15231562 -0.19435523 -0.3037687 -0.14487322 0.1653337 -0.07300151 0.33942023
-0.4517974 -0.17995036 0.1196152 0.20964336 -0.20520496 -0.040409863 -0.3952456 -0.26738203
-0.02345598 -0.1805765 -0.037855525 0.03452551 0.031024253 0.02524717 -0.017120814 -0.007885689
-0.021095349 -0.0122678755 -0.044609874 0.046607014 0.020411616 0.0053973794 -0.010414178 0.030613959
0.049921513 0.027942425 -0.03692447 0.000923121 0.01534518 0.0030150295 -0.023304522 -0.037402045
-0.014701712 0.04204156 -0.017552638 -0.028079724 -0.020610232 -0.0035352588 0.02679553 -0.035292845
-0.043442674 -0.0018728495 -0.035003047 0.01514361 0.024142295 0.008604712 -0.0006973982 -0.036503255
-0.0024805905 0.0048243226 -0.035019692 0.037021797 0.03381864 -0.04313293 -0.030426329 -0.029773975
-0.016417546 0.0094525935 0.011690825 -0.014039797 -0.08049914 -0.13360527 -0.106053926 0.11220533
0.08180855 -0.1272511 -0.6836261 -0.4885378 -0.122263655 0.02006835 -0.116618164 -0.29154947
-0.4157122 -0.32342118 0.34377614 -0.326013 -0.2642921 -0.36688837 -0.43089274 0.1017815
0.0029484413 -0.31421494 -0.14755554 -0.1777298 0.29821855 -0.057138886 -0.18270813 -0.43626827
-0.31512108 -0.08901045 0.017146789 0.17913292 -0.10105683 -0.57611215 -0.39921805 -0.08419964
-0.39771888 -0.38617417 -0.42574164 -0.30330142 0.01396105 0.24998534 0.12154917 0.054463387
-0.20153446 0.24265316 0.14527991 0.09236085 0.3909428 -0.10530129 -0.10358907 0.02525854
-0.22193524 0.20678875 0.029833643 -0.051617257 -0.26772383 -0.3196674 0.42323464 -0.057889152
-0.07081369 -0.61808735 -0.5448496 0.1938656 -0.1392737 0.21446234 -0.44369188 -0.16289546
-0.16087781 -0.21307191 -0.014910405 -0.2817346 -0.3442313 -0.24832879 -0.48062274 -0.3966924
-0.669191 -0.45156193 0.3648705 -0.0382446 -0.18928224 0.27528334 0.207315 0.2115629
0.57801586 0.16106586 0.3684314 -0.09422906 -0.16276571 0.4300179 -0.38634858 0.12828061
-0.38126352 -0.080922835 0.038636725 -0.42912588 -0.09796469 -0.40139595 -0.58210146 -0.30170438
-0.03619914 -0.055788703 -0.28273228 0.023861563 0.1618049 -0.059667353 -0.010298304 -0.16313238
-0.23083903 -0.15684147 -0.27202636 -0.49186248 -0.13859192 -0.44977435 -0.21428923 -0.24229825
-0.30085942 -0.18887424 -0.20847028 -0.045257542 -0.3980146 -0.1027415 -0.2754357 0.17273538
-0.023782725 -0.39493752 -0.21854353 -0.45103896 -0.027515963 -0.6521221 -0.34237596 -0.24504206
0.15468328 -0.38049647 -0.20729358 -0.16495013 -0.10938958 -0.008019288 -0.034144893 0.4141628
-0.04599394 -0.38789594 -0.3214641 0.16058858 0.14898346 -0.09570939 -0.11425264 0.25486565
-0.48201475 0.14564672 -0.41730347 -0.17581739 -0.2665451 -0.13064598 -0.11581802 0.11586323
00000000: 970b c0be 884b 34bf d7e7 0dbf 9d94 5d3e
00000010: acdf 373e 1b55 f2be 9b60 90be 3bf5 ae3e
00000020: ef2e b2be d2ca 90be 3d04 8bbe 0989 b7be
00000030: 43f5 c0be ce94 4bbd 066f 7cbe e8a5 88be
00000040: a0c1 a8bd ea9e 79be debd adbe 2e3a 90be
00000050: c680 96be b65e cbbe 8cf3 91be b809 c9be
00000060: 0c01 a13e d9a6 053c 88f8 9fbe 0ad7 d4be
00000070: 4b42 b33e 8031 8a3c 2e2a a2be fc63 9abe
00000080: 6421 9e3e a0f8 1b3e 0f05 47be 9287 9bbe
00000090: a559 14be 3d4d 293e d181 95bd 7dc8 ad3e
000000a0: fd51 e7be e844 38be d0f8 f43d c0ac 563e
000000b0: 4021 52be d084 25bd a25d cabe 4ce6 88be
000000c0: c126 c0bc 0ce9 38be 650e 1bbd 9f6a 0d3d
000000d0: 9326 fe3c 27d3 ce3c f340 8cbc fa32 01bc
000000e0: 27d0 acbc 33ff 48bc d8b8 36bd ffe6 3e3d
000000f0: 4336 a73c 80dc b03b 3aa0 2abc 20ca fa3c
00000100: 807a 4c3d 83e7 e43c 1d3e 17bd 9afd 713a
00000110: 5a6a 7b3c cd97 453b 20e9 bebc e332 19bd
00000120: 73df 70bc c533 2c3d 8dca 8fbc 7307 e6bc
00000130: cad6 a8bc cdaf 67bb 4d82 db3c 3b8f 10bd
00000140: f2f0 31bd 677a f5ba 5b5f 0fbd e71c 783c
00000150: 10c6 c53c c7fa 0c3c 9ad1 36ba 7084 15bd
00000160: 6791 22bb 5a15 9e3b cf70 0fbd 2ba4 173d
00000170: 6a85 0a3d 28ac 30bd a340 f9bc 8de8 f3bc
00000180: 177e 86bc 0ddf 1a3c e08a 3f3c 2d07 66bc
00000190: bcdc a4bd d2cf 08be cd32 d9bd e8cb e53d
000001a0: 3e8b a73d 1d4e 02be 1f02 2fbf a021 fabe
000001b0: 5e65 fabd 6166 a43c 81d5 eebd f945 95be
000001c0: 3bd8 d4be 7697 a5be 6d03 b03e 2deb a6be
000001d0: 4b51 87be cbd8 bbbe f99d dcbe d272 d03d
000001e0: a33a 413b c8e0 a0be cd18 17be cdfe 35be
000001f0: 1ab0 983e 770a 6abd d717 3bbe 8e5e dfbe
00000200: 8d57 a1be 1c4b b6bd 6c77 8c3c 9f6e 373e
00000210: e2f6 cebd 167c 13bf 4f66 ccbe dc70 acbd
00000220: cfa1 cbbe 9fb8 c5be cffa d9be 534a 9bbe
00000230: e3bc 643c 28fc 7f3e c5ee f83d 0015 5f3d
00000240: 0d5f 4ebe 127a 783e 42c4 143e af27 bd3d
00000250: a829 c83e 34a8 d7bd 8226 d4bd ffea ce3c
00000260: fe42 63be 6ec0 533e af65 f43c 9e6c 53bd
00000270: 1913 89be 72ab a3be 36b2 d83e 2d1d 6dbd
00000280: c506 91bd f93a 1ebf 437b 0bbf b484 463e
00000290: c49d 0ebe 049c 5b3e 952b e3be 11ce 26be
000002a0: 27bd 24be 862f 5abe c54a 74bc 843f 90be
000002b0: 163f b0be e749 7ebe 2f14 f6be 441b cbbe
000002c0: 1a50 2bbf 2033 e7be 4ed0 ba3e 5fa6 1cbd
000002d0: 34d3 41be f0f1 8c3e 624a 543e f2a3 583e
000002e0: d9f8 133f 73ee 243e 0aa3 bc3e 2afb c0bd
000002f0: 0eac 26be 4e2b dc3e 7bcf c5be fe5b 033e
00000300: f934 c3be dfba a5bd 8b41 1e3d 63b6 dbbe
00000310: b6a1 c8bd c583 cdbe 9a04 15bf ff78 9abe
00000320: 8d45 14bd b282 64bd 49c2 90be 5379 c33c
00000330: 2fb0 253e c165 74bd 38ba 28bc 2d0c 27be
00000340: 1161 6cbe 0d9b 20be 0a47 8bbe 66d5 fbbe
00000350: 0aeb 0dbe d348 e6be a36e 5bbe 081d 78be
00000360: 3f0a 9abe 4068 41be 3c79 55be f95f 39bd
00000370: 92c8 cbbe 236a d2bd e805 8dbe 8be1 303e
00000380: fdd3 c2bc 4035 cabe e0c9 5fbe 94ee e6be
00000390: 2869 e1bc 79f1 26bf e74b afbe 4eec 7abe
000003a0: 4b65 1e3e 6fd0 c2be c544 54be b0e8 28be
000003b0: a507 e0bd 5563 03bc 84db 0bbd 260d d43e
000003c0: 2464 3cbd 4c9a c6be f196 a4be 5571 243e
000003d0: 1f8f 183e 4903 c4bd 4afd e9bd c07d 823e
000003e0: a3ca f6be 6a24 153e cda8 d5be 7909 34be
000003f0: 9978 88be 0fc8 05be 0032 edbd b349 ed3d

7.bias f4 [120]
-0.57324106 -0.06725877 -0.023492897 -0.122800276 -0.072062984 -0.53092 0.5620935 -0.15509424
0.001342245 -0.029044269 -0.6664946 -0.2751552 -1.5950612 0.005005569 -0.07364763 -1.3452445
-0.16774938 0.1168122 0.29145277 1.9345998 -0.09330446 -0.2541168 1.413261 1.53124
-0.1813708 -0.11508955 -0.5303415 0.011081479 -0.14848055 -0.43486163 1.6750544 -0.02336797
-0.054790035 -0.10579898 -1.6066061 -1.4571228 -0.033187196 0.18179049 0.011484653 -0.69788134
-0.16320673 2.0247989 -0.31098226 0.67908263 0.012971118 -0.32350773 -0.107588515 1.3016182
-1.5388496 -0.07239597 -0.52719754 -0.040261015 -0.52046454 -0.20437776 0.4711467 -0.22220682
-0.26236773 1.9492364 -0.12769581 -0.06475749 -0.07271343 0.636699 0.003979208 -0.17091148
-0.058361094 -0.04832126 0.0075397682 -0.001414078 -0.09390413 -0.67154723 -0.009991639 0.15929402
-0.05836621 1.6039743 -0.041654773 -0.19367841 -0.19246908 -0.34661764 -0.44745937 -0.7793544
-0.09891655 -0.48662847 1.0721921 0.07412514 0.11367374 -0.07137837 -0.09067827 -0.020530624
-0.02230299 -0.14583 -0.77073276 -0.06256053 -0.11568493 0.19431148 -0.07794082 -0.06087657
-0.06962467 1.2677611 -0.47641557 0.97961056 -0.69246906 -0.2868454 -0.20307241 -0.05519802
-0.04685935 1.5165958 0.32697 -0.030506404 -0.023416772 0.67756 -0.19553879 -0.05860446
0.49756953 -0.20770054 -0.1152762 -0.11854318 0.8127198 -0.1576009 -0.059115782 -2.2693212
00000000: edbf 12bf f7be 89bd 2d74 c0bc b67e fbbd
00000010: c295 93bd 60ea 07bf 5ce5 0f3f 06d1 1ebe
00000020: 45ee af3a 3fee edbc 649f 2abf 24e1 8cbe
00000030: f72a ccbf c205 a43b 92d4 96bd f930 acbf
00000040: 7ec6 2bbe 3c3b ef3d 4c39 953e f7a0 f73f
00000050: 6916 bfbd 991b 82be bde5 b43f acff c33f
00000060: 44b9 39be 12b4 ebbd 76c4 07bf 178f 353c
00000070: 490b 18be 2fa6 debe 2f68 d63f 2f6e bfbc
00000080: 846b 60bd 23ad d8bd 45a5 cdbf 0083 babf
00000090: 4cef 07bd 4927 3a3e 202a 3c3c 5aa8 32bf
000000a0: aa1f 27be 4e96 0140 1139 9fbe 5cd8 2d3f
000000b0: d084 543c cea2 a5be 5e57 dcbd 6d9b a63f
000000c0: 06f9 c4bf 5744 94bd 6bf6 06bf bce8 24bd
000000d0: 2a3d 05bf 6748 51be 243a f13e 2f8a 63be
000000e0: 1055 86be 9480 f93f b1c2 02be 939f 84bd
000000f0: c7ea 94bd b5fe 223f 0464 823b 6b03 2fbe
00000100: 0b0c 6fbd 83ec 45bd 2910 f73b 9658 b9ba
00000110: cf50 c0bd 85ea 2bbf f9b3 23bc f91d 233e
00000120: 6811 6fbd 084f cd3f 329e 2abd a253 46be
00000130: 9d16 45be de77 b1be 6519 e5be c583 47bf
00000140: c394 cabd 5e27 f9be 973d 893f ecce 973d
00000150: c7cd e83d d32e 92bd 87b5 b9bd d72f a8bc
00000160: c3b4 b6bc 7654 15be be4e 45bf bc1f 80bd
00000170: 38ec ecbd 97f9 463e 709f 9fbd b659 79bd
00000180: 6197 8ebd ff45 a23f beec f3be c2c7 7a3f
00000190: a745 31bf 66dd 92be 37f2 4fbe 5217 62bd
000001a0: 97ef 3fbd d01f c23f 9d68 a73e 91e8 f9bc
000001b0: 88d4 bfbc 9274 2d3f 523b 48be 3b0b 70bd
000001c0: 6fc1 fe3e 73af 54be ee15 ecbd c4c6 f2bd
000001d0: 680e 503f 2162 21be 6423 72bd 8f3c 11c0

9.weight f4 [84, 120]
-0.044813074 -0.014345073 0.0063660746 0.063921325 0.058025762 -0.09969473 -1.5579615 -0.20497775
-3.978457e-06 -0.041812006 0.020449398 -0.02417896 0.14031088 -0.0025582283 -0.072872646 0.559836
-0.015736884 -1.269231 -0.44901463 -0.15465464 0.005034333 0.035781603 -1.2450613 -0.13948396
0.09624534 -0.021457724 -0.29901195 0.07470299 0.121177934 0.05323176 -0.5079943 0.039767206
0.030884985 -0.0591424 -0.75094146 -1.0710404 0.06510358 -0.33670503 0.07790358 0.10103655
-0.0967335 -0.22388425 0.016814351 -0.045754466 -0.17287304 0.3063537 -0.1281455 -0.5733672
0.13171424 -0.051964145 -0.06285264 -0.117225535 -0.17801146 -0.02089663 -0.7823898 0.024071325
-0.08893873 0.2959867 0.1626693 -0.121495925 0.07770645 -0.15016714 -0.03962549 0.27377558
0.0461274 0.12592714 -0.53766 0.092949234 0.1809712 -1.0907054 0.05638503 -0.76272607
-0.15650554 -0.24150762 0.05311789 0.079699695 -1.1196326 -0.065611854 -0.012556724 0.053980816
0.04171326 0.07973927 -0.4515234 -1.0720863 -0.7722642 -0.07684809 0.1543778 0.087618954
-0.08144084 0.15573746 0.106351435 -0.05038285 0.06657018 -0.55292696 -0.7583538 -0.0037110015
0.19581525 -0.16013595 -0.078322746 -0.55348086 -1.0998198 0.09029935 -0.037673008 -0.111682005
-0.057037484 0.0005553442 -0.4487028 -0.061722945 -0.037604634 -0.97739434 -0.106874846 0.07420801
-0.87253183 0.07598651 0.05014463 -0.075633205 -0.7288869 0.17937146 -0.042875446 -0.8695338
-0.094868094 0.0499883 0.009194081 -0.07564144 0.024938447 0.43540907 -0.15795875 0.13270384
-0.04128107 -0.06308203 0.37634113 -0.0078794705 0.38364628 -0.008595752 0.055516355 -0.39710572
0.029580612 0.3489482 0.5338628 -0.13376182 -0.045640893 0.049646754 0.34927025 -0.17509037
0.72343826 0.14455923 -0.47687536 0.07150861 -0.04605023 -0.025770837 0.18945554 0.14386658
0.034556642 -0.052487977 -0.30739218 0.88484967 -0.007962546 -0.33992708 0.0009946069 0.055799033
-0.04245387 0.048267443 0.28805134 0.1502904 0.1197926 -0.09586712 -0.11611519 -0.33454108
0.24049686 -0.027672397 -0.16989058 0.06432321 -0.05757902 -0.064390086 -0.23040266 0.047919437
0.14825122 0.21216562 0.034856524 0.008674636 -0.044327237 -0.40334776 0.05714494 0.102100246
-0.042905487 0.032988805 0.6442813 -0.023567699 -0.025491366 -0.01703464 0.046895485 0.5245329
0.07255561 0.4250529 0.005422602 0.04600481 0.22058253 0.08680615 0.13147612 -0.11978484
-0.11195064 -0.6296234 -0.39043766 0.09764346 0.2801853 0.010684856 0.0041187415 -0.08274517
-0.07516382 0.04676797 -0.5052503 -0.9453103 0.029604323 0.28719285 0.021391567 0.037189208
-0.14450392 -0.50004494 -0.5104214 -0.058151573 -0.11767974 0.0044150613 0.0742287 -0.09991351
0.006515478 -0.5863364 0.10665603 -0.04934975 -0.09363825 0.08701348 -0.057364654 -0.032322004
-0.4630761 -0.20998432 -0.010095438 -0.1460286 -0.15711416 -0.10502494 -0.06787397 0.2806679
0.07849559 -0.11631733 -0.016468395 0.038750738 -0.10273152 0.23362343 -1.263091 0.066320814
0.07067605 -0.004335092 -0.051309325 -0.07489972 0.109429 -0.059772063 -0.028540267 -0.043077756
00000000: ea8d 37bd 9907 6bbc 819a d03b 2fe9 823d
00000010: 6cac 6d3d c02c ccbd 486b c7bf b0e5 51be
00000020: af7e 85b6 1143 2bbd 7f85 a73c f412 c6bc
00000030: a8ad 0f3e f3a7 27bb 413e 95bd 6951 0f3f
00000040: a3ea 80bc 2976 a2bf 3fe5 e5be c95d 1ebe
00000050: 0cf7 a43b bb8f 123d 2b5e 9fbf e2d4 0ebe
00000060: 471c c53d 1cc8 afbc 1818 99be e2fd 983d
00000070: 232c f83d 8c09 5a3d ea0b 02bf f0e2 223d
00000080: 8202 fd3c 4d3f 72bd b33d 40bf da17 89bf
00000090: 0755 853d 9a64 acbe ea8b 9f3d 40ec ce3d
000000a0: 371c c6bd ea41 65be 40be 893c 0969 3bbd
000000b0: a105 31be 64da 9c3e 9338 03be 31c8 12bf
000000c0: 19e0 063e 5bd8 54bd e3b8 80bd f113 f0bd
000000d0: a348 36be 692f abbc b34a 48bf 3a31 c53c
000000e0: 8225 b6bd 928b 973e c892 263e dbd2 f8bd
000000f0: 8f24 9f3d 6ac5 19be 564e 22bd 502c 8c3e
00000100: 16f0 3c3d 0bf3 003e 16a4 09bf 2b5c be3d
00000110: 8450 393e 3c9c 8bbf fdf3 663d 0442 43bf
00000120: fd42 20be c64d 77be 2592 593d 9839 a33d
00000130: 1f50 8fbf 825f 86bd b8ba 4dbc fd1a 5d3d
00000140: 86db 2a3d 584e a33d 132e e7be 203a 89bf
00000150: 1bb3 45bf 8862 9dbd 3715 1e3e 9171 b33d
00000160: 75ca a6bd a479 1f3e c8ce d93d 3f5e 4ebd
00000170: f255 883d 9f8c 0dbf 7a23 42bf 4634 73bb
00000180: cb83 483e aefa 23be ad67 a0bd ecb0 0dbf
00000190: e5c6 8cbf deee b83d 034f 1abd 89b9 e4bd
000001a0: 23a0 69bd 8594 113a 60bc e5be 33d1 7cbd
000001b0: 5107 1abd 8436 7abf 33e1 dabd 5ffa 973d
000001c0: 3f5e 5fbf d19e 9b3d 7564 4d3d 95e5 9abd
000001d0: 5598 3abf 27ad 373e 2a9e 2fbd c499 5ebf
000001e0: 344a c2bd 88c0 4c3d c5a2 163c e6e9 9abd
000001f0: b74b cc3c f0ed de3e f0bf 21be 84e3 073e
00000200: 5716 29bd 2731 81bd c9af c03e e518 01bc
00000210: 496d c43e 32d5 0cbc 1e65 633d 7151 cbbe
00000220: 0a53 f23c 57a9 b23e 3cab 083f dcf8 08be
00000230: f2f1 3abd 655a 4b3d 8dd3 b23e e44a 33be
00000240: 4033 393f 5607 143e 0229 f4be 1b73 923d
00000250: 2a9f 3cbd 5d1d d3bc a200 423e c351 133e
00000260: 448b 0d3d a2fd 56bd 8262 9dbe 8285 623f
00000270: 5775 02bc ec0a aebe 785d 823a 878d 643d
00000280: 1ce4 2dbd 15b4 453d 777b 933e bae5 193e
00000290: d355 f53d fb55 c4bd cdcd edbd f848 abbe
000002a0: cf44 763e 39b1 e2bc ccf7 2dbe e3bb 833d
000002b0: fad7 6bbd f3de 83bd adee 6bbe 2c47 443d
000002c0: 2bcf 173e f241 593e b7c5 0e3d 0f20 0e3c
000002d0: 7a90 35bd 9983 cebe d010 6a3d ef19 d13d
000002e0: aabd 2fbd 451f 073d 9fef 243f 0c11 c1bc
000002f0: 45d3 d0bc 3b8c 8bbc 7b15 403d ca47 063f
00000300: 0998 943d 89a0 d93e 15b0 b13b 8a6f 3c3d
00000310: 63e0 613e 6cc7 b13d ada1 063e c151 f5bd
00000320: 6146 e5bd 002f 21bf 72e7 c7be 4bf9 c73d
00000330: 7374 8f3e 890f 2f3c 82f6 863b 4d76 a9bd
00000340: 7def 99bd c58f 3f3d 1558 01bf dbff 71bf
00000350: c484 f23c f10a 933e 5e3d af3c b653 183d
00000360: d6f8 13be f202 00bf faaa 02bf 5830 6ebd
00000370: 1302 f1bd 38ac 903b 3705 983d 749f ccbd
00000380: ca7f d53b 241a 16bf 7a6e da3d f722 4abd
00000390: 69c5 bfbd 2034 b23d 33f7 6abd 1464 04bd
000003a0: 5018 edbe 2106 57be 5667 25bc 8588 15be
000003b0: 89e2 20be 5117 d7bd 8201 8bbd b4b3 8f3e
000003c0: 4cc2 a03d c837 eebd bae8 86bc 18b9 1e3d
000003d0: e764 d2bd fb3a 6f3e f7ac a1bf 35d3 873d
000003e0: 9bbe 903d 630d 8ebb ba29 52bd 0665 99bd
000003f0: 501c e03d 8dd3 74bd 47cd e9bc 4d72 30bd

9.bias f4 [84]
-1.3552008 1.808383 -0.5479537 -0.9635269 -1.3869821 -2.4012883 2.9230652 1.6822782
-0.37637278 -0.50134647 -0.058963705 -0.5972771 -0.27687648 -0.17157213 -1.9473088 -1.100159
-2.3361146 -0.59733427 -1.0297033 -1.0396105 -0.54616416 1.2328296 2.2220814 -1.0953606
-0.6298898 -1.2294607 0.11674772 3.411012 -1.2368678 0.7941929 -2.3145657 -0.13968472
0.3476869 -0.19479106 -1.2046912 -1.3793123 -0.23158662 -1.0653545 -0.037846524 -0.37914532
2.6945024 0.36541355 -1.1392866 2.616111 -0.1199152 -1.2856058 3.247708 -1.6129521
-2.3185713 -1.8325284 -0.93257844 4.34024 -0.19394168 -0.5822101 -0.09264238 -0.7331608
-0.25103533 -0.2859222 -1.3466058 4.5622253 -0.20092218 -1.5917553 2.7964334 2.955629
0.24878885 2.546583 -0.620818 -0.8830137 0.52400416 -2.1138759 4.612689 -0.7394493
-1.3583494 0.79767716 -0.2519359 -1.4660398 -0.77953035 -2.4630294 -1.8183063 -0.24185102
0.3596103 -0.7966924 -0.49695644 -1.4895252
00000000: 3877 adbf 1879 e73f b246 0cbf b3a9 76bf
00000010: a188 b1bf b5ae 19c0 8013 3b40 e454 d73f
00000020: efb3 c0be 3e58 00bf ed83 71bd 27e7 18bf
00000030: c1c2 8dbe 9bb0 2fbe 6a41 f9bf 03d2 8cbf
00000040: e782 15c0 e6ea 18bf 51cd 83bf f511 85bf
00000050: 6ad1 0bbf 5ccd 9d3f 9536 0e40 c734 8cbf
00000060: 7540 21bf f85e 9dbf 6e19 ef3d 054e 5a40
00000070: af51 9ebf 3a50 4b3f d821 14c0 8309 0fbe
00000080: 0404 b23e 4f77 47be 5233 9abf 4e8d b0bf
00000090: 0b25 6dbe 895d 88bf f504 1bbd 561f c2be
000000a0: ba72 2c40 7c17 bb3e 25d4 91bf 5d6e 2740
000000b0: 1a96 f5bd bb8e a4bf 73da 4f40 3775 cebf
000000c0: 7963 14c0 4a90 eabf 76bd 6ebf 3fe3 8a40
000000d0: a698 46be b90b 15bf 4abb bdbd 6db0 3bbf
000000e0: b487 80be 6564 92be 945d acbf c0fd 9140
000000f0: 8bbe 4dbe a3be cbbf c4f8 3240 0729 3d40
00000100: 81c2 7e3e 37fb 2240 eeed 1ebf 300d 62bf
00000110: 2325 063f be49 07c0 269b 9340 8d4c 3dbf
00000120: 65de adbf 9234 4c3f befd 80be 31a7 bbbf
00000130: 4d8f 47bf 46a2 1dc0 43be e8bf cba7 77be
00000140: d71e b83e 08f4 4bbf 1371 febe c3a8 bebf

11.weight f4 [10, 84]
-3.044355 -0.013892551 -0.24414133 -1.6907911 -1.8404679 -4.2673054 -4.1567235 -0.3176309
-0.07438968 -0.05229464 -1.7351311 -0.07978771 -2.9591615 -0.11868169 -1.7106618 -1.5399013
-11.254093 -2.315644 -3.7030706 -5.6065493 -4.0992093 -5.4159904 -0.5876326 -0.9224594
-3.377721 -3.2484782 -0.22713085 -0.024922715 -1.9536005 -0.905001 -0.49039477 -0.8743898
-1.2241921 -0.17943567 -2.196385 -0.70640165 -0.5292047 -0.07738138 -0.05207147 -0.2638142
-0.12273267 -5.928744 -2.180634 -0.09129326 -0.03816722 -0.37279028 -0.2564686 -3.3347602
-2.6221077 -1.88214 -4.341149 -0.1485787 -0.13291015 -0.5458961 0.013902372 -3.0983737
-0.72745436 -4.437797 -2.5218847 -0.052371915 -0.34467858 -6.5557837 -0.08464821 -0.25679293
0.037148744 -0.34898663 -0.3691076 -2.6010807 0.097065255 -2.411901 0.08035512 0.13127296
-3.5454504 -3.9369059 -0.1241554 -1.7973558 -0.023222938 -1.9388624 -6.7412844 -0.22939603
0.16611381 -1.1186596 -0.124489345 -1.939206 -2.2335112 -0.16673094 -3.147626 -1.9142017
-5.321513 -1.7246497 -0.19875555 -0.2688626 -0.08668292 -0.3229253 -0.98618215 -0.311139
-0.45670247 -0.11038212 -3.4912958 -1.1958145 -4.3430815 -3.9697213 -1.2162373 -2.1566157
-7.790823 -1.0025021 -1.0662189 -3.2967935 -4.7324777 -5.573555 -0.1009326 0.043615162
-1.6717105 -0.93239826 -1.4425015 -0.69603646 -2.7258508 0.053212803 -1.4892538 -2.0129123
-2.9872482 0.2721187 -0.21064672 -0.25658894 -0.057572342 -2.2692308 -1.2490587 -0.08063869
-0.07263503 -3.2423518 -0.25635368 -5.1061764 -0.86989456 -2.373256 -1.5675608 -0.05275179
-0.04387338 -6.2997203 0.07193317 -1.1964011 -4.177856 -3.3983622 -1.3169374 -0.04680175
-0.41704097 -1.086786 -0.14997903 -0.13761008 -0.50924623 -3.2612016 -1.2210912 -5.5534573
0.0058951066 -4.051281 -0.028059933 -0.77314174 -2.6268384 -1.4147238 -0.02888354 -0.6948458
-0.16808443 -1.2746038 -5.8379664 -0.099948436 -0.15871505 -1.8952912 -0.009375033 -1.9510174
-1.0781868 -0.065816164 -1.5608057 -1.2690834 -7.020614 -0.99495023 -0.47823068 -0.21024248
-0.05536565 -0.18350606 -1.4599632 -0.060630824 -0.7740363 -0.05584303 -4.014411 -2.6094759
-4.23081 -3.3139894 -1.0878017 -3.2871926 -2.1789322 -2.229237 -0.5049479 -2.0991356
-0.63171184 -0.42565325 -0.17886242 0.16379483 -1.1620167 -0.65773267 -2.5311327 -0.84124243
-0.5063178 -0.031205218 -0.4766128 -1.1511016 -0.7700529 -0.04252606 -0.08454312 -0.1189144
-0.08383912 -1.6022648 -3.1627688 0.24407877 -0.038928173 -0.69885904 -0.1820825 -3.468423
-1.3809152 -2.3904905 -1.1890696 -0.19966927 0.033067133 -2.5845332 -0.02874367 -0.77588546
-1.3194976 -3.5108552 -2.8177333 -0.11322105 -0.24561128 -5.594523 -0.23814414 -0.13079832
-0.42356735 -0.33434266 -2.6913648 -2.1034927 -0.23641194 -1.2403986 -0.02707713 -0.669848
-0.9449911 -1.4264709 -0.27238724 -0.19359928 -0.0050023273 -1.0496966 -6.932554 -0.109037794
-0.12107455 -1.7961366 0.0039620074 -3.6086457 -0.6398385 -0.11819702 -3.1187685 -2.3484757
00000000: b6d6 42c0 959d 63bc 2f00 7abe d86b d8bf
00000010: 7494 ebbf c48d 88c0 e103 85c0 84a0 a2be
00000020: 9e59 98bd e832 56bd c718 debf bd67 a3bd
00000030: e762 3dc0 630f f3bd f7f6 dabf 7c1b c5bf
00000040: c410 34c1 8333 14c0 1cff 6cc0 da68 b3c0
00000050: b92c 83c0 cb4f adc0 176f 16bf 4d26 6cbf
00000060: 952c 58c0 11e7 4fc0 fd94 68be b92a ccbc
00000070: 950f fabf 25ae 67bf 0615 fbbe 03d8 5fbf
00000080: 54b2 9cbf fcbd 37be 9291 0cc0 bdd6 34bf
00000090: f679 07bf 217a 9ebd e548 55bd a812 87be
000000a0: 445b fbbd 45b8 bdc0 828f 0bc0 f6f7 babd
000000b0: 3b55 1cbd 5ede bebe da4f 83be b66c 55c0
000000c0: 9dd0 27c0 f7e9 f0bf b1ea 8ac0 0425 18be
000000d0: 9919 08be d9bf 0bbf c6c6 633c c14b 46c0
000000e0: 733a 3abf 6f02 8ec0 8f66 21c0 ef83 56bd
000000f0: b679 b0be fbc8 d1c0 0a5c adbd 5d7a 83be
00000100: 4829 183d 60ae b2be acfb bcbe 1b78 26c0
00000110: 26ca c63d 965c 1ac0 3a91 a43d 6b6c 063e
00000120: a9e8 62c0 44f6 7bc0 3045 febd c10f e6bf
00000130: 083e bebc a52c f8bf 9ab8 d7c0 cbe6 6abe
00000140: bd19 2a3e 3d30 8fbf 45f4 febd e737 f8bf
00000150: d9f1 0ec0 84bb 2abe b472 49c0 9004 f5bf
00000160: d649 aac0 52c1 dcbf 9386 4bbe 5ca8 89be
00000170: d186 b1bd 7756 a5be 6f76 7cbf 9c4d 9fbe
00000180: e8d4 e9be 0510 e2bd 6471 5fc0 7310 99bf
00000190: 86fa 8ac0 ea0f 7ec0 aaad 9bbf fe05 0ac0
000001a0: 6c4e f9c0 fd51 80bf dc79 88bf aafe 52c0
000001b0: 7570 97c0 905a b2c0 c0b5 cebd d0a5 323d
000001c0: 9cfa d5bf a7b1 6ebf e4a3 b8bf 722f 32bf
000001d0: 5774 2ec0 abf5 593d de9f bebf 8ed3 00c0
000001e0: 132f 3fc0 2453 8b3e c6b3 57be a05f 83be
000001f0: fad0 6bbd 143b 11c0 28e1 9fbf e625 a5bd
00000200: adc1 94bd b182 4fc0 ca40 83be cc65 a3c0
00000210: 69b1 5ebf 6de3 17c0 d5a5 c8bf 4312 58bd
00000220: 93b4 33bd 4f97 c9c0 b351 933d ac23 99bf
00000230: ffb0 85c0 c47e 59c0 6891 a8bf 31b3 3fbd
00000240: 6586 d5be ce1b 8bbf 1a94 19be a8e9 0cbe
00000250: f65d 02bf 87b7 50c0 b74c 9cbf ecb5 b1c0
00000260: bd2b c13b 18a4 81c0 f2dd e5bc 9eec 45bf
00000270: 1f1e 28c0 ab15 b5bf 2c9d ecbc 6ae1 31bf
00000280: 531e 2cbe 3826 a3bf 9fd0 bac0 c4b1 ccbd
00000290: 3386 22be e798 f2bf bd99 19bc f0ba f9bf
000002a0: 0602 8abf a0ca 86bd 7bc8 c7bf 5371 a2bf
000002b0: dfa8 e0c0 0fb5 7ebf a7da f4be ce49 57be
000002c0: 18c7 62bd 03e9 3bbe 13e0 babf 0758 78bd
000002d0: 3e27 46bf a9bb 64bd 0e76 80c0 a701 27c0
000002e0: cc62 87c0 6718 54c0 163d 8bbf 5d61 52c0
000002f0: a073 0bc0 d2ab 0ec0 4444 01bf 3d58 06c0
00000300: deb7 21bf 39ef d9be b627 37be d5b9 273e
00000310: f7bc 94bf 2b61 28bf 14fe 21c0 aa5b 57bf
00000320: 0b9e 01bf 16a2 ffbc 9806 f4be 4c57 93bf
00000330: 3022 45bf ce2f 2ebd f124 adbd 6589 f3bd
00000340: d8b3 abbd 0317 cdbf ce6a 4ac0 c9ef 793e
00000350: 2673 1fbd 6de8 32bf d673 3abe a4fa 5dc0
00000360: d4c1 b0bf ccfd 18c0 6f33 98bf 1a76 4cbe
00000370: 6771 073d fe68 25c0 d877 ebbc 6ea0 46bf
00000380: 4ce5 a8bf dab1 60c0 be55 34c0 70e0 e7bd
00000390: 8681 7bbe 5506 b3c0 0fdc 73be ffef 05be
000003a0: d2dd d8be f62e abbe 523f 2cc0 a09f 06c0
000003b0: f915 72be 62c5 9ebf dbd0 ddbc 297b 2bbf
000003c0: f0ea 71bf 9996 b6bf 5776 8bbe e43e 46be
000003d0: 90ea a3bb 755c 86bf 7bd7 ddc0 354f dfbd
000003e0: eff5 f7bd cee7 e5bf bad3 813b 0df4 66c0
000003f0: 75cc 23bf 4711 f2bd e799 47c0 6d4d 16c0

11.bias f4 [10]
-0.6000193 -1.6162109 -0.09618114 -0.4499727 0.0954174 0.69218713 -0.064989105 -0.90325505
1.9077249 0.070794955
00000000: dd9a 19bf 00e0 cebf 9efa c4bd d262 e6be
00000010: 336a c33d 2d33 313f 0219 85bd b93b 67bf
00000020: 5430 f43f f2fc 903d
