HW6/my_best_model_90.000.pth (torch, 250211 bytes, 10 tensors)

0.weight f4 [6, 1, 5, 5]
0	0x3de41f7b	0.11138817
1	0x3e892bda	0.2679127
2	0x3e8cbd83	0.27488336
3	0xbe4b4b5a	-0.19852963
4	0xbe0ac60e	-0.13552114
5	0xbf56eee1	-0.8395825
6	0xbddec400	-0.10877228
7	0x3ebb2912	0.36554772
8	0x3cf8aace	0.030354884
9	0xbef46f30	-0.4774108
10	0xbeeec340	-0.4663334
11	0xbf1e9956	-0.6195272
12	0x3f746d15	0.95478946
13	0x3f8f04f1	1.1173383
14	0xbe950f6c	-0.29113328
15	0x3f89663d	1.0734326
16	0xc0162b50	-2.3463936
17	0x3f479de8	0.7797532
18	0x3f273db5	0.6532853
19	0xbd83288c	-0.06404218
20	0x3f120b63	0.57048625
21	0xbf1ce6e5	-0.6128982
22	0xbf7613dd	-0.9612406
23	0x3ea2bdf1	0.3178554
24	0xbda90974	-0.08253756
25	0x3e303d11	0.17210795
26	0xbe08991b	-0.13339655
27	0x3f873032	1.0561583
28	0x3f70bf48	0.9404187
29	0x3d31c9b5	0.043405253
30	0x3dd0f13f	0.10202264
31	0x3de4819c	0.111575335
32	0xbe13bd0e	-0.14427587
33	0xbfe08caf	-1.7542933
34	0xbf5d20b5	-0.8637803
35	0xbe3b538e	-0.18293592
36	0xbf27184c	-0.6527145
37	0xbf9e8338	-1.2383795
38	0xbf0ca605	-0.54940826
39	0x3df6e9bd	0.12056301
40	0xbdef2b50	-0.11678183
41	0xbd233d6f	-0.03985351
42	0x3f306ad3	0.68913
43	0x3f80e206	1.0068977
44	0x3f2ea80e	0.6822518
45	0x3e875b6b	0.26436934
46	0x3e0a0bb2	0.13481024
47	0x3dce407f	0.100708954
48	0x3d82724b	0.06369456
49	0xbe8f2486	-0.27957553
50	0xbe633f64	-0.2219215
51	0x3c67a09d	0.014137414
52	0xbd92d3f5	-0.07169334
53	0xbbb5037f	-0.0055240984
54	0x3e004108	0.12524807
55	0xbe42a2ec	-0.19007462
56	0xbe79c20d	-0.24390431
57	0xb95342fc	-0.00020147482
58	0x3e29678c	0.16543406
59	0x3d5034df	0.05083167
60	0xbfc0ecc4	-1.5072255
61	0xbf074e0d	-0.5285347
62	0x3ea7875d	0.3272046
63	0x3efe58dc	0.4967717
64	0x3e68cfeb	0.22735564
65	0xbf312117	-0.69191116
66	0xbdce42e6	-0.100713536
67	0xbe925100	-0.28577423
68	0xbdd713f4	-0.10501853
69	0x3e51f2f8	0.20502841
70	0xbc72a764	-0.014810417
71	0xbe18c121	-0.14917423
72	0x3e20c7fe	0.15701291
73	0x3e8b9f06	0.27269763
74	0x3edfddb4	0.43723834
75	0x3ec0572a	0.375665
76	0xbea16f1d	-0.31530085
77	0xbf8560b2	-1.0420134
78	0x3e98fe28	0.29881406
79	0x3e7a700b	0.24456804
80	0x3f68224e	0.90677345
81	0x3f0b283b	0.5435826
82	0xbfa737c9	-1.3063899
83	0xbf625bac	-0.8842113
84	0xbd13b7b4	-0.036063865
85	0x3f32d2e0	0.6985302
86	0x3f87bc90	1.060442
87	0x3e0a5e4a	0.13512531
88	0xbf861e29	-1.0477954
89	0xbf05753f	-0.5213203
90	0x3ed5aef1	0.41735032
91	0x3f7d91e9	0.99050766
92	0x3f57fe66	0.84372556
93	0x3f13fa19	0.57803494
94	0xbd35d96d	-0.044396807
95	0xbea67ea8	-0.32518506
96	0xbd94999c	-0.07255861
97	0xbe140514	-0.14455062
98	0x3c9895d4	0.018626131
99	0xbd96dc96	-0.07366292
100	0x3f8b422e	1.0879571
101	0x3eca779f	0.3954439
102	0xbf6bb0b7	-0.9206652
103	0xbe154014	-0.14575225
104	0x3dbdcaba	0.09267183
105	0x3f9ba940	1.2161026
106	0xbf48a805	-0.7838138
107	0xbfd76fd4	-1.6831002
108	0x3f6db685	0.9285663
109	0x3e1f6fae	0.15569946
110	0x3f06c1f2	0.5263969
111	0xbf7c6c75	-0.9860299
112	0xbe28bbc1	-0.16477872
113	0x3f3912cd	0.7229431
114	0xbda94a8e	-0.08266173
115	0x3c897494	0.016779222
116	0xbe04910b	-0.12945955
117	0x3d8c706c	0.0685738
118	0x3df6ce35	0.120510496
119	0xbe797e41	-0.24364568
120	0x3d8ca418	0.06867236
121	0x3be60e53	0.0070207505
122	0xbe2d4693	-0.16921453
123	0xba71605e	-0.000920778
124	0xbe24fc49	-0.16111864
125	0x3e9aeca4	0.30258667
126	0x3e05960b	0.13045518
127	0x3e47c147	0.19507323
128	0xbdeba73e	-0.11506508
129	0xbe27bcde	-0.16380641
130	0xbee78ce3	-0.45224676
131	0xbcfb1153	-0.03064791
132	0x3f9d18c8	1.2273188
133	0x3f8ac444	1.0841146
134	0x3f41d6d7	0.75718445
135	0xbe9c07f5	-0.3047482
136	0xbf836886	-1.0266273
137	0xbfcaa084	-1.5830235
138	0xbe83c05b	-0.25732693
139	0x3d0d8d76	0.034558736
140	0x3e11526b	0.14191596
141	0x3e9962af	0.29958102
142	0xbf0252ed	-0.50907785
143	0xbf97cebd	-1.1859967
144	0xbf0eb153	-0.55739325
145	0x3e74dec9	0.23913111
146	0x3e7f0885	0.24905594
147	0x3f433655	0.7625478
148	0x3f1a1c35	0.6019929
149	0xbe9bcacb	-0.30428156

0.bias f4 [6]
0	0xbe3b0b81	-0.18266107
1	0xbd6c693f	-0.057717558
2	0x3fb4dec7	1.4130486
3	0xc0075288	-2.1144123
4	0xbedea0b1	-0.43481973
5	0xbe38bb2e	-0.18040153

3.weight f4 [16, 6, 5, 5]
0	0xbfba6a12	-1.456362
1	0xbfe124b4	-1.7589326
2	0x3f3c4e55	0.73557025
3	0x3f067ddf	0.52535814
4	0x3e6399af	0.22226594
5	0x400b6b7c	2.1784353
6	0x3ff695c4	1.9264455
7	0xbf5fbc0d	-0.8739632
8	0x3ef4f52c	0.478433
9	0x4001058b	2.0159633
10	0x3ebaed04	0.36508954
11	0x3f272747	0.6529431
12	0xc024c456	-2.5744834
13	0xbed705f6	-0.41996735
14	0xbfd17e89	-1.636674
15	0xbfa13ab4	-1.259604
16	0xbfabe33c	-1.3428721
17	0xbfa699b2	-1.3015654
18	0xc000ba6c	-2.0113783
19	0xbe7b93f4	-0.24568158
20	0x3d72b6f3	0.059256505
21	0xbea25af3	-0.31710014
22	0xbe570a99	-0.21000136
23	0xbe5d7cfd	-0.2162971
24	0x3dbd668a	0.092480734
25	0x3f578e13	0.84201163
26	0xbe87aafc	-0.26497638
27	0xbdec1c1e	-0.115288004
28	0x3f57dfdc	0.8432596
29	0x3e91f943	0.28510484
30	0xbea90443	-0.33011064
31	0x3e9d71c6	0.30750865
32	0x3dc35571	0.09537781
33	0x3eadeab1	0.33968118
34	0x3e92a092	0.2863813
35	0xc0033503	-2.0501106
36	0xbfc0dcd8	-1.5067396
37	0x3e86b199	0.2630737
38	0x3ecf2eac	0.40465295
39	0xc0280b43	-2.6256874
40	0xbf0edadc	-0.558027
41	0xc01aae2a	-2.4168801
42	0xbfa13a98	-1.2596006
43	0xbe2189fc	-0.15775293
44	0x3e1e883c	0.15481657
45	0xbec1c42e	-0.37844986
46	0xc07be34d	-3.9357483
47	0xbf13d3b6	-0.5774492
48	0x3f1e2577	0.61775917
49	0x3ef99d8b	0.48753008
50	0xbe61ecab	-0.22062938
51	0xbf91b863	-1.1384395
52	0x3f3957c4	0.72399545
53	0x3f0ca7b7	0.5494341
54	0xbf6c6de6	-0.9235519
55	0x3e093a7a	0.13401213
56	0xbf00977e	-0.5023116
57	0xbfba9e61	-1.4579583
58	0x3f8ab622	1.0836833
59	0x3d63b4b3	0.05559225
60	0x3f3b6de7	0.7321457
61	0x3fe35424	1.7760053
62	0xbf168e4d	-0.58810884
63	0xbf0e6548	-0.5562329
64	0xbf51d678	-0.8196788
65	0x3df167ff	0.11787414
66	0x3eda4777	0.42632648
67	0xc00877ec	-2.1323195
68	0xc06fca9c	-3.7467413
69	0xbfba824a	-1.4571011
70	0xbf53425e	-0.82523143
71	0xc019874b	-2.3988826
72	0xbe4d0116	-0.20019946
73	0x3f5d24fd	0.86384565
74	0x3f36c017	0.71386856
75	0x3d8a2d9b	0.0674698
76	0xbd095a27	-0.03353324
77	0x3e0bf463	0.13667445
78	0xbedbe5dc	-0.42948806
79	0xbe5e18c9	-0.21689142
80	0xbe834300	-0.25637054
81	0xbfca06fe	-1.5783384
82	0x3ec93d06	0.3930437
83	0xbe80e345	-0.25173393
84	0x3e9a079a	0.30083925
85	0xbed894d9	-0.42301062
86	0xbf2d04b6	-0.67585313
87	0xbe551d5a	-0.20811978
88	0xbde154e5	-0.110025205
89	0xbd936e65	-0.071987905
90	0xbff0ece2	-1.8822291
91	0xbf8bea84	-1.0930943
92	0xbf9f9fc5	-1.2470633
93	0xbf971d8f	-1.1805896
94	0xbf4a0284	-0.7891009
95	0xbf83b5e5	-1.0289885
96	0xc06d8c55	-3.7116902
97	0xbf721c8b	-0.94574803
98	0xbf99efe0	-1.2026329
99	0xbec82940	-0.3909397
100	0x3f123b63	0.57121867
101	0xbeae1a40	-0.34004402
102	0xbf9eb91c	-1.2400241
103	0xbf990149	-1.1953517
104	0xbff07d73	-1.8788284
105	0x3d29bbe1	0.04143894
106	0xbf8a3cec	-1.0799842
107	0xbeb2c56b	-0.34916243
108	0x3f88cc7a	1.0687401
109	0x3edbdba1	0.42941
110	0xbef47bbd	-0.47750655
111	0xbfd5c293	-1.6700004
112	0x3b866353	0.004101196
113	0x402bca7d	2.684234
114	0x3f308c63	0.68964213
115	0x3f6b7d20	0.919878
116	0x403f2439	2.9865859
117	0xbf5a8fd1	-0.85375696
118	0xbfa17504	-1.2613835
119	0xbeff81f6	-0.4990384
120	0x3f166c1b	0.58758706
121	0xbea06ea0	-0.313344
122	0xc051b9f6	-3.2769752
123	0x3f181a16	0.59414804
124	0x3f0806d4	0.5313542
125	0x3e9d9f82	0.30785757
126	0x3d1acc74	0.037792638
127	0x3ea18d65	0.31553188
128	0xbf21a861	-0.6314755
129	0x3f3a867f	0.72861475
130	0x3f3aeb5c	0.7301538
131	0x3f1030b1	0.563243
132	0x3f5ba9af	0.8580579
133	0xbfa0f028	-1.257329
134	0xbf11ff95	-0.5703061
135	0xbfac7185	-1.3472143
136	0xbf811246	-1.0083702
137	0xbd9682b7	-0.07349151
138	0xc03582bc	-2.8361044
139	0xbfd4e19b	-1.6631349
140	0xc00ee744	-2.2328653
141	0xc0331a86	-2.7984939
142	0x3ee2d15f	0.44300362
143	0xbf3f5047	-0.7473187
144	0x3e1a8402	0.1508942
145	0x3d008615	0.03137787
146	0x3cdb698a	0.026783723
147	0xbe81a54d	-0.25321427
148	0x3e091d33	0.13390045
149	0x3f17644c	0.59137416
150	0x3f0f12e2	0.5588819
151	0x3e3160a2	0.17322019
152	0x3d9cc03b	0.076538526
153	0xbf43f2f3	-0.76542586
154	0xbd288a5a	-0.041147567
155	0xbe738555	-0.23781331
156	0xbf2779d4	-0.6542027
157	0xbfb7f133	-1.4370483
158	0xbf2eed70	-0.6833105
159	0x3e53a34c	0.20667762
160	0xbf3471f9	-0.7048641
161	0xbf65508b	-0.89576024
162	0x3e3d19be	0.18466851
163	0x3f160b09	0.5861059
164	0x3f914311	1.1348592
165	0x3f70b103	0.940201
166	0x3ef57aa0	0.47945118
167	0xbf425de3	-0.7592451
168	0xbf360d17	-0.71113724
169	0x3cc5f0ac	0.024162613
170	0x3e5e385e	0.2170119
171	0x3e61b0cf	0.22040103
172	0xbf412e72	-0.75461495
173	0x3c176c04	0.0092420615
174	0x3e8fc72b	0.2808164
175	0xbf4566cf	-0.7711
176	0xbf7cc488	-0.9873738
177	0xbf091ec6	-0.5356258
178	0x3f37adab	0.7174937
179	0xbfd288db	-1.6448015
180	0x3f99fe35	1.2030703
181	0x3d64c2a2	0.05584968
182	0xc01f65ba	-2.490584
183	0xbf2d08c3	-0.67591494
184	0xbe88540a	-0.26626617
185	0x3f248fb9	0.64281803
186	0xc00fb97e	-2.2456965
187	0x3f69c0d9	0.9130989
188	0x3f1a5357	0.60283417
189	0xbea8252f	-0.3284087
190	0xc0796212	-3.8966107
191	0x3e3ffaf4	0.18748075
192	0x3f4edb6d	0.8080357
193	0xbe8ea346	-0.27858943
194	0xc04b5b6a	-3.1774545
195	0x3ec6ef8f	0.38854644
196	0x3eb5cb8d	0.3550686
197	0xbf1c8dd2	-0.611539
198	0xbf95d9b3	-1.1707062
199	0xbeb4709b	-0.3524216
200	0xbf215abf	-0.6302909
201	0xbe3b838a	-0.18311897
202	0x3e6b6767	0.22988664
203	0x3f10c68c	0.5655296
204	0xbee60156	-0.44922894
205	0x3f738221	0.95120436
206	0x3f8c6d34	1.0970826
207	0xbc6fb08b	-0.0146294935
208	0xc01577fa	-2.3354478
209	0xbf7caf2c	-0.9870479
210	0x3e9c1dcb	0.3049148
211	0xbf9833fd	-1.1890866
212	0xc0492d22	-3.1433797
213	0xbf37fef2	-0.7187339
214	0x3c0a2239	0.008431011
215	0xc05b0331	-3.4220698
216	0xc005cacd	-2.090503
217	0x3f2e0fd6	0.67992914
218	0x3f195f49	0.5991102
219	0xbf0bd58c	-0.5462272
220	0x3e4b7f7e	0.19872853
221	0x3e918bfe	0.28427118
222	0x3f0368cb	0.51331776
223	0xbf8f92c6	-1.1216667
224	0xbf134820	-0.5753193
225	0x3f485d01	0.7826691
226	0xbc5a77b7	-0.013334206
227	0xbedcbf9a	-0.4311493
228	0xbf54261a	-0.8287064
229	0x3e43c65b	0.19118635
230	0xbf40b20b	-0.7527167
231	0xbfe28acf	-1.7698611
232	0xbfa59bfd	-1.2938229
233	0xbe161075	-0.14654715
234	0x3edc29ba	0.43000585
235	0xbeb58263	-0.3545104
236	0xbfc695b3	-1.5514435
237	0xbf1fb876	-0.6239084
238	0xbf170b2d	-0.5900143
239	0xbecf60d2	-0.40503556
240	0xbf6bef29	-0.92161804
241	0x3f07fd5b	0.53120965
242	0x3f0ea6c8	0.5572324
243	0x3ed597f3	0.4171749
244	0xbf32dd51	-0.6986895
245	0x3da42ae7	0.080159955
246	0x3b8ac04b	0.004234349
247	0xbe88c429	-0.26712158
248	0xbf305cf3	-0.6889183
249	0xbe594f4b	-0.21221654
250	0xbf2f8b34	-0.6857178
251	0xbf129f0a	-0.57273924
252	0x3ece1e2a	0.40257388
253	0xbea4db57	-0.32198593
254	0xbf672996	-0.9029783
255	0x3ecd968f	0.4015393

3.bias f4 [16]
0	0xbd089da3	-0.03335346
1	0xbdb294b4	-0.08719769
2	0xbe5c0eef	-0.21490072
3	0xbe852b0e	-0.2600941
4	0xbe36d79c	-0.17855686
5	0xbd854a70	-0.065083385
6	0xbe129426	-0.14314327
7	0x3c80f214	0.015740432
8	0xbe228ce3	-0.15874057
9	0xbe4a5e4d	-0.19762535
10	0xbdc427d5	-0.0957791
11	0xbdf1197b	-0.11772438
12	0xbe671117	-0.22565113
13	0xbf168443	-0.58795565
14	0xbef51009	-0.47863796
15	0xbcd87bc3	-0.026426202

7.weight f4 [120, 400]
0	0xbec00b97	-0.37508842
1	0xbf344b88	-0.7042775
2	0xbf0de7d7	-0.55431885
3	0x3e5d949d	0.21638723
4	0x3e37dfac	0.17956418
5	0xbef2551b	-0.47330555
6	0xbe90609b	-0.28198704
7	0x3eaef53b	0.3417147
8	0xbeb22eef	-0.34801432
9	0xbe90cad2	-0.2827974
10	0xbe8b043d	-0.2715167
11	0xbeb78909	-0.35846737
12	0xbec0f543	-0.3768712
13	0xbd4b94ce	-0.049702458
14	0xbe7c6f06	-0.24651727
15	0xbe88a5e8	-0.26689076
16	0xbda8c1a0	-0.08240056
17	0xbe799eea	-0.24377027
18	0xbeadbdde	-0.3393392
19	0xbe903a2e	-0.28169388
20	0xbe9680c6	-0.2939512
21	0xbecb5eb6	-0.39720696
22	0xbe91f38c	-0.28506124
23	0xbec909b8	-0.39265227
24	0x3ea1010c	0.3144611
25	0x3c05a6d9	0.008157455
26	0xbe9ff888	-0.31244302
27	0xbed4d70a	-0.41570312
28	0x3eb3424b	0.35011515
29	0x3c8a3180	0.016869307
30	0xbea22a2e	-0.31672806
31	0xbe9a63fc	-0.30154407
32	0x3e9e2164	0.3088485
33	0x3e1bf8a0	0.15231562
34	0xbe47050f	-0.19435523
35	0xbe9b8792	-0.3037687
36	0xbe1459a5	-0.14487322
37	0x3e294d3d	0.1653337
38	0xbd9581d1	-0.07300151
39	0x3eadc87d	0.33942023
40	0xbee751fd	-0.4517974
41	0xbe3844e8	-0.17995036
42	0x3df4f8d0	0.1196152
43	0x3e56acc0	0.20964336
44	0xbe522140	-0.20520496
45	0xbd2584d0	-0.040409863
46	0xbeca5da2	-0.3952456
47	0xbe88e64c	-0.26738203
48	0xbcc026c1	-0.02345598
49	0xbe38e90c	-0.1805765
50	0xbd1b0e65	-0.037855525
51	0x3d0d6a9f	0.03452551
52	0x3cfe2693	0.031024253
53	0x3cced327	0.02524717
54	0xbc8c40f3	-0.017120814
55	0xbc0132fa	-0.007885689
56	0xbcacd027	-0.021095349
57	0xbc48ff33	-0.0122678755
58	0xbd36b8d8	-0.044609874
59	0x3d3ee6ff	0.046607014
60	0x3ca73643	0.020411616
61	0x3bb0dc80	0.0053973794
62	0xbc2aa03a	-0.010414178
63	0x3cfaca20	0.030613959
64	0x3d4c7a80	0.049921513
65	0x3ce4e783	0.027942425
66	0xbd173e1d	-0.03692447
67	0x3a71fd9a	0.000923121
68	0x3c7b6a5a	0.01534518
69	0x3b4597cd	0.0030150295
70	0xbcbee920	-0.023304522
71	0xbd1932e3	-0.037402045
72	0xbc70df73	-0.014701712
73	0x3d2c33c5	0.04204156
74	0xbc8fca8d	-0.017552638
75	0xbce60773	-0.028079724
76	0xbca8d6ca	-0.020610232
77	0xbb67afcd	-0.0035352588
78	0x3cdb824d	0.02679553
79	0xbd108f3b	-0.035292845
80	0xbd31f0f2	-0.043442674
81	0xbaf57a67	-0.0018728495
82	0xbd0f5f5b	-0.035003047
83	0x3c781ce7	0.01514361
84	0x3cc5c610	0.024142295
85	0x3c0cfac7	0.008604712
86	0xba36d19a	-0.0006973982
87	0xbd158470	-0.036503255
88	0xbb229167	-0.0024805905
89	0x3b9e155a	0.0048243226
90	0xbd0f70cf	-0.035019692
91	0x3d17a42b	0.037021797
92	0x3d0a856a	0.03381864
93	0xbd30ac28	-0.04313293
94	0xbcf940a3	-0.030426329
95	0xbcf3e88d	-0.029773975
96	0xbc867e17	-0.016417546
97	0x3c1adf0d	0.0094525935
98	0x3c3f8ae0	0.011690825
99	0xbc66072d	-0.014039797
100	0xbda4dcbc	-0.08049914
101	0xbe08cfd2	-0.13360527
102	0xbdd932cd	-0.106053926
103	0x3de5cbe8	0.11220533
104	0x3da78b3e	0.08180855
105	0xbe024e1d	-0.1272511
106	0xbf2f021f	-0.6836261
107	0xbefa21a0	-0.4885378
108	0xbdfa655e	-0.122263655
109	0x3ca46661	0.02006835
110	0xbdeed581	-0.116618164
111	0xbe9545f9	-0.29154947
112	0xbed4d83b	-0.4157122
113	0xbea59776	-0.32342118
114	0x3eb0036d	0.34377614
115	0xbea6eb2d	-0.326013
116	0xbe87514b	-0.2642921
117	0xbebbd8cb	-0.36688837
118	0xbedc9df9	-0.43089274
119	0x3dd072d2	0.1017815
120	0x3b413aa3	0.0029484413
121	0xbea0e0c8	-0.31421494
122	0xbe1718cd	-0.14755554
123	0xbe35fecd	-0.1777298
124	0x3e98b01a	0.29821855
125	0xbd6a0a77	-0.057138886
126	0xbe3b17d7	-0.18270813
127	0xbedf5e8e	-0.43626827
128	0xbea1578d	-0.31512108
129	0xbdb64b1c	-0.08901045
130	0x3c8c776c	0.017146789
131	0x3e376e9f	0.17913292
132	0xbdcef6e2	-0.10105683
133	0xbf137c16	-0.57611215
134	0xbecc664f	-0.39921805
135	0xbdac70dc	-0.08419964
136	0xbecba1cf	-0.39771888
137	0xbec5b89f	-0.38617417
138	0xbed9facf	-0.42574164
139	0xbe9b4a53	-0.30330142
140	0x3c64bce3	0.01396105
141	0x3e7ffc28	0.24998534
142	0x3df8eec5	0.12154917
143	0x3d5f1500	0.054463387
144	0xbe4e5f0d	-0.20153446
145	0x3e787a12	0.24265316
146	0x3e14c442	0.14527991
147	0x3dbd27af	0.09236085
148	0x3ec829a8	0.3909428
149	0xbdd7a834	-0.10530129
150	0xbdd42682	-0.10358907
151	0x3cceeaff	0.02525854
152	0xbe6342fe	-0.22193524
153	0x3e53c06e	0.20678875
154	0x3cf465af	0.029833643
155	0xbd536c9e	-0.051617257
156	0xbe891319	-0.26772383
157	0xbea3ab72	-0.3196674
158	0x3ed8b236	0.42323464
159	0xbd6d1d2d	-0.057889152
160	0xbd9106c5	-0.07081369
161	0xbf1e3af9	-0.61808735
162	0xbf0b7b43	-0.5448496
163	0x3e4684b4	0.1938656
164	0xbe0e9dc4	-0.1392737
165	0x3e5b9c04	0.21446234
166	0xbee32b95	-0.44369188
167	0xbe26ce11	-0.16289546
168	0xbe24bd27	-0.16087781
169	0xbe5a2f86	-0.21307191
170	0xbc744ac5	-0.014910405
171	0xbe903f84	-0.2817346
172	0xbeb03f16	-0.3442313
173	0xbe7e49e7	-0.24832879
174	0xbef6142f	-0.48062274
175	0xbecb1b44	-0.3966924
176	0xbf2b501a	-0.669191
177	0xbee73320	-0.45156193
178	0x3ebad04e	0.3648705
179	0xbd1ca65f	-0.0382446
180	0xbe41d334	-0.18928224
181	0x3e8cf1f0	0.27528334
182	0x3e544a62	0.207315
183	0x3e58a3f2	0.2115629
184	0x3f13f8d9	0.57801586
185	0x3e24ee73	0.16106586
186	0x3ebca30a	0.3684314
187	0xbdc0fb2a	-0.09422906
188	0xbe26ac0e	-0.16276571
189	0x3edc2b4e	0.4300179
190	0xbec5cf7b	-0.38634858
191	0x3e035bfe	0.12828061
192	0xbec334f9	-0.38126352
193	0xbda5badf	-0.080922835
194	0x3d1e418b	0.038636725
195	0xbedbb663	-0.42912588
196	0xbdc8a1b6	-0.09796469
197	0xbecd83c5	-0.40139595
198	0xbf15049a	-0.58210146
199	0xbe9a78ff	-0.30170438
200	0xbd14458d	-0.03619914
201	0xbd6482b2	-0.055788703
202	0xbe90c249	-0.28273228
203	0x3cc37953	0.023861563
204	0x3e25b02f	0.1618049
205	0xbd7465c1	-0.059667353
206	0xbc28ba38	-0.010298304
207	0xbe270c2d	-0.16313238
208	0xbe6c6111	-0.23083903
209	0xbe209b0d	-0.15684147
210	0xbe8b470a	-0.27202636
211	0xbefbd566	-0.49186248
212	0xbe0deb0a	-0.13859192
213	0xbee648d3	-0.44977435
214	0xbe5b6ea3	-0.21428923
215	0xbe781d08	-0.24229825
216	0xbe9a0a3f	-0.30085942
217	0xbe416840	-0.18887424
218	0xbe55793c	-0.20847028
219	0xbd395ff9	-0.045257542
220	0xbecbc892	-0.3980146
221	0xbdd26a23	-0.1027415
222	0xbe8d05e8	-0.2754357
223	0x3e30e18b	0.17273538
224	0xbcc2d3fd	-0.023782725
225	0xbeca3540	-0.39493752
226	0xbe5fc9e0	-0.21854353
227	0xbee6ee94	-0.45103896
228	0xbce16928	-0.027515963
229	0xbf26f179	-0.6521221
230	0xbeaf4be7	-0.34237596
231	0xbe7aec4e	-0.24504206
232	0x3e1e654b	0.15468328
233	0xbec2d06f	-0.38049647
234	0xbe5444c5	-0.20729358
235	0xbe28e8b0	-0.16495013
236	0xbde007a5	-0.10938958
237	0xbc036355	-0.008019288
238	0xbd0bdb84	-0.034144893
239	0x3ed40d26	0.4141628
240	0xbd3c6424	-0.04599394
241	0xbec69a4c	-0.38789594
242	0xbea496f1	-0.3214641
243	0x3e247155	0.16058858
244	0x3e188f1f	0.14898346
245	0xbdc40349	-0.09570939
246	0xbde9fd4a	-0.11425264
247	0x3e827dc0	0.25486565
248	0xbef6caa3	-0.48201475
249	0x3e15246a	0.14564672
250	0xbed5a8cd	-0.41730347
251	0xbe340979	-0.17581739
252	0xbe887899	-0.2665451
253	0xbe05c80f	-0.13064598
254	0xbded3200	-0.11581802
255	0x3ded49b3	0.11586323

7.bias f4 [120]
0	0xbf12bfed	-0.57324106
1	0xbd89bef7	-0.06725877
2	0xbcc0742d	-0.023492897
3	0xbdfb7eb6	-0.122800276
4	0xbd9395c2	-0.072062984
5	0xbf07ea60	-0.53092
6	0x3eeefb34	0.46676028
7	0xbe1ed106	-0.15509424
8	0x3aafee45	0.001342245
9	0xbcedee3f	-0.029044269
10	0xbf2a9f64	-0.6664946
11	0xbe8ce124	-0.2751552
12	0xbfc12d68	-1.5091982
13	0x3ba405c2	0.005005569
14	0xbd96d492	-0.07364763
15	0xbfb12e24	-1.3842206
16	0xbe2bc67e	-0.16774938
17	0xbe139a33	-0.14414291
18	0x3e32014b	0.17383306
19	0x3f9ab291	1.2085744
20	0xbdbf1669	-0.09330446
21	0xbe821b99	-0.2541168
22	0x3f17f110	0.5935221
23	0x3f970f99	1.1801635
24	0xbd3be804	-0.045875564
25	0xbdebb412	-0.11508955
26	0xbdc0f9bc	-0.09422633
27	0x3c358f17	0.011081479
28	0xbe180b49	-0.14848055
29	0xbeb46a7a	-0.35237485
30	0x3f7fa7a5	0.9986518
31	0xbcbf6e2f	-0.02336797
32	0xbd606b84	-0.054790035
33	0xbdd8ad23	-0.10579898
34	0xbfe7486c	-1.8068976
35	0xbfa07277	-1.2534932
36	0xbd07ef4c	-0.033187196
37	0xbe011ed1	-0.12609412
38	0x3c3c2a20	0.011484653
39	0xbf3a9a8f	-0.7289209
40	0xbe271faa	-0.16320673
41	0x3f611fcf	0.8793916
42	0xbe9f3911	-0.31098226
43	0x3edda97d	0.43293372
44	0xbd33a47e	-0.043858044
45	0xbea5a2ce	-0.32350773
46	0xbddc575e	-0.107588515
47	0x3f5cb885	0.86219054
48	0xbf9a11b3	-1.2036651
49	0xbd944457	-0.07239597
50	0xbf06f66b	-0.52719754
51	0xbd24e8bc	-0.040261015
52	0xbec993e5	-0.39370647
53	0xbe514867	-0.20437776
54	0x3eea5c86	0.45773715
55	0xbe638a2f	-0.22220682
56	0xbe865510	-0.26236773
57	0x3f984243	1.1895221
58	0xbdc51e03	-0.09624865
59	0xbd849f93	-0.06475749
60	0xbd94eac7	-0.07271343
61	0x3e23e8d5	0.16006787
62	0x3b826404	0.003979208
63	0xbe2f036b	-0.17091148
64	0xbd6f0c0b	-0.058361094
65	0xbd45ec83	-0.04832126
66	0xbeba5c52	-0.3639856
67	0xbab95896	-0.001414078
68	0xbdc050cf	-0.09390413
69	0xbf093eaa	-0.5361124
70	0xbc23b3f9	-0.009991639
71	0x3eb67698	0.35637355
72	0xbd6f1168	-0.05836621
73	0x3f2bfb73	0.67180556
74	0xbd2a9e32	-0.041654773
75	0xbe4653a2	-0.19367841
76	0xbdce7807	-0.10081487
77	0xbeb177de	-0.34661764
78	0xbee51965	-0.44745937
79	0xbf4783c5	-0.7793544
80	0xbdca94c3	-0.09891655
81	0xbe800528	-0.25003934
82	0x3f42be27	0.760714
83	0x3b8b8929	0.004258294
84	0xbdd5fdea	-0.10448821
85	0xbd922ed3	-0.07137837
86	0xbdb9b587	-0.09067827
87	0xbca82fd7	-0.020530624
88	0xbcb6b4c3	-0.02230299
89	0xbe155476	-0.14583
90	0xbf3c6339	-0.735889
91	0xbe437fda	-0.1909174
92	0xbdecec38	-0.11568493
93	0x3ebcaff5	0.36852995
94	0xbf39ca66	-0.7257446
95	0xbd7959b6	-0.06087657
96	0xbd8e9761	-0.06962467
97	0x3f3f1137	0.7463564
98	0xbef90601	-0.48637393
99	0x3ead45a8	0.33842206
100	0xbf54cca4	-0.83124757
101	0xbe92dd66	-0.2868454
102	0xbe4ff237	-0.20307241
103	0xbd621752	-0.05519802
104	0xbd3fef97	-0.04685935
105	0x3ec34846	0.38141078
106	0xbd38b577	-0.045094933
107	0xbcf9e891	-0.030506404
108	0xbcbfd488	-0.023416772
109	0x3ed91253	0.42396793
110	0xbe483b52	-0.19553879
111	0xbd700b3b	-0.05860446
112	0x3ed47e2e	0.41502517
113	0xbe54af73	-0.20770054
114	0xbdec15ee	-0.1152762
115	0xbdf2c6c4	-0.11854318
116	0x3f0f2df4	0.55929494
117	0xbe216221	-0.1576009
118	0xbd722364	-0.059115782
119	0xbffc83ec	-1.9727759

9.weight f4 [84, 120]
0	0xbd378dea	-0.044813074
1	0xbc6b0799	-0.014345073
2	0x3bd09a81	0.0063660746
3	0x3d82e92f	0.063921325
4	0x3d6dac6c	0.058025762
5	0xbdcc2cc0	-0.09969473
6	0xbfc76b48	-1.5579615
7	0xbe51e5b0	-0.20497775
8	0xb6857eaf	-3.978457e-06
9	0xbd2b4311	-0.041812006
10	0x3ca7857f	0.020449398
11	0xbcc612f4	-0.02417896
12	0x3e0fada8	0.14031088
13	0xbb27a7f3	-0.0025582283
14	0xbd953e41	-0.072872646
15	0x3f0f5169	0.559836
16	0xbc80eaa3	-0.015736884
17	0xbfa27629	-1.269231
18	0xbee5e53f	-0.44901463
19	0xbe1e5dc9	-0.15465464
20	0x3ba4f70c	0.005034333
21	0x3d128fbb	0.035781603
22	0xbf9f5e2b	-1.2450613
23	0xbe0ed4e2	-0.13948396
24	0x3dc51c47	0.09624534
25	0xbcafc81c	-0.021457724
26	0xbe991818	-0.29901195
27	0x3d98fde2	0.07470299
28	0x3df82c23	0.121177934
29	0x3d5a098c	0.05323176
30	0xbf020bea	-0.5079943
31	0x3d22e2f0	0.039767206
32	0x3cfd0282	0.030884985
33	0xbd723f4d	-0.0591424
34	0xbf403db3	-0.75094146
35	0xbf8917da	-1.0710404
36	0x3d855507	0.06510358
37	0xbeac649a	-0.33670503
38	0x3d9f8bea	0.07790358
39	0x3dceec40	0.10103655
40	0xbdc61c37	-0.0967335
41	0xbe6541ea	-0.22388425
42	0x3c89be40	0.016814351
43	0xbd3b6909	-0.045754466
44	0xbe3105a1	-0.17287304
45	0x3e9cda64	0.3063537
46	0xbe033893	-0.1281455
47	0xbf12c831	-0.5733672
48	0x3e06e019	0.13171424
49	0xbd54d85b	-0.051964145
50	0xbd80b8e3	-0.06285264
51	0xbdf013f1	-0.117225535
52	0xbe3648a3	-0.17801146
53	0xbcab2f69	-0.02089663
54	0xbf484ab3	-0.7823898
55	0x3cc5313a	0.024071325
56	0xbdb62582	-0.08893873
57	0x3e978b92	0.2959867
58	0x3e2692c8	0.1626693
59	0xbdf8d2db	-0.121495925
60	0x3d9f248f	0.07770645
61	0xbe19c56a	-0.15016714
62	0xbd224e56	-0.03962549
63	0x3e8c2c50	0.27377558
64	0x3d3cf016	0.0461274
65	0x3e00f30b	0.12592714
66	0xbf09a416	-0.53766
67	0x3dbe5c2b	0.092949234
68	0x3e395084	0.1809712
69	0xbf8b9c3c	-1.0907054
70	0x3d66f3fd	0.05638503
71	0xbf434204	-0.76272607
72	0xbe2042fd	-0.15650554
73	0xbe774dc6	-0.24150762
74	0x3d599225	0.05311789
75	0x3da33998	0.079699695
76	0xbf8f501f	-1.1196326
77	0xbd865f82	-0.065611854
78	0xbc4dbab8	-0.012556724
79	0x3d5d1afd	0.053980816
80	0x3d2adb86	0.04171326
81	0x3da34e58	0.07973927
82	0xbee72e13	-0.4515234
83	0xbf893a20	-1.0720863
84	0xbf45b31b	-0.7722642
85	0xbd9d6288	-0.07684809
86	0x3e1e1537	0.1543778
87	0x3db37191	0.087618954
88	0xbda6ca75	-0.08144084
89	0x3e1f79a4	0.15573746
90	0x3dd9cec8	0.106351435
91	0xbd4e5e3f	-0.05038285
92	0x3d8855f2	0.06657018
93	0xbf0d8c9f	-0.55292696
94	0xbf42237a	-0.7583538
95	0xbb733446	-0.0037110015
96	0x3e4883cb	0.19581525
97	0xbe23faae	-0.16013595
98	0xbda067ad	-0.078322746
99	0xbf0db0ec	-0.55348086
100	0xbf8cc6e5	-1.0998198
101	0x3db8eede	0.09029935
102	0xbd1a4f03	-0.037673008
103	0xbde4b989	-0.111682005
104	0xbd69a023	-0.057037484
105	0x3a119485	0.0005553442
106	0xbee5bc60	-0.4487028
107	0xbd7cd133	-0.061722945
108	0xbd1a0751	-0.037604634
109	0xbf7a3684	-0.97739434
110	0xbddae133	-0.106874846
111	0x3d97fa5f	0.07420801
112	0xbf5f5e3f	-0.87253183
113	0x3d9b9ed1	0.07598651
114	0x3d4d6475	0.05014463
115	0xbd9ae595	-0.075633205
116	0xbf3a9855	-0.7288869
117	0x3e37ad27	0.17937146
118	0xbd2f9e2a	-0.042875446
119	0xbf5e99c4	-0.8695338
120	0xbdc24a34	-0.094868094
121	0x3d4cc088	0.0499883
122	0x3c16a2c5	0.009194081
123	0xbd9ae9e6	-0.07564144
124	0x3ccc4bb7	0.024938447
125	0x3edeedf0	0.43540907
126	0xbe90db5b	-0.28292355
127	0x3e07e384	0.13270384
128	0xbd291657	-0.04128107
129	0xbd813127	-0.06308203
130	0x3ec0afc9	0.37634113
131	0xbc0118e5	-0.0078794705
132	0x3ec46d49	0.38364628
133	0xbc0cd532	-0.008595752
134	0x3d63651e	0.055516355
135	0xbf3b8a73	-0.7325813
136	0x3cf2530a	0.029580612
137	0x3ef0404d	0.46924058
138	0x3f11087d	0.5665358
139	0xbf0ce14b	-0.5503127
140	0xbd3af1f2	-0.045640893
141	0x3d4b5a65	0.049646754
142	0x3edd0adc	0.43172348
143	0xbe9542bf	-0.29152486
144	0x3f2233cf	0.63360304
145	0x3e140756	0.14455923
146	0xbf594239	-0.8486667
147	0x3d92731b	0.07150861
148	0xbd3c9f2a	-0.04605023
149	0xbdcb10f2	-0.099153414
150	0xbe3361a6	-0.17517719
151	0x3e1351c3	0.14386658
152	0x3d0d8b44	0.034556642
153	0xbd56fda2	-0.052487977
154	0xbec4dfb3	-0.3845192
155	0x3f471921	0.7777272
156	0xbc027557	-0.007962546
157	0xbec2c7d5	-0.38043085
158	0x3a825d78	0.0009946069
159	0x3ecd3731	0.4008117
160	0xbd2de41c	-0.04245387
161	0xbe9b0678	-0.30278373
162	0x3e937b77	0.28805134
163	0xbe0e019e	-0.13867804
164	0x3df2018e	0.11816703
165	0xbdc455fb	-0.09586712
166	0xbdedcdcd	-0.11611519
167	0xbf0591fc	-0.5217588
168	0xbe2b8f23	-0.16753821
169	0xbce2b139	-0.027672397
170	0xbe2df7cc	-0.16989058
171	0x3d83bbe3	0.06432321
172	0xbd6bd7fa	-0.05757902
173	0xbd83def3	-0.064390086
174	0xbed9aabb	-0.4251307
175	0x3d44472c	0.047919437
176	0x3e17cf2b	0.14825122
177	0x3de6822b	0.11255296
178	0x3d0ec4d1	0.034855668
179	0x3c0e200f	0.008674636
180	0xbd35907a	-0.044327237
181	0xbef8afe1	-0.48571685
182	0x3d6a10d0	0.05714494
183	0x3dd119ef	0.102100246
184	0xbd2fbdaa	-0.042905487
185	0x3d071f45	0.032988805
186	0x3f24c2f7	0.6435999
187	0xbcc1110c	-0.023567699
188	0xbcd0d345	-0.025491366
189	0xbeb9a252	-0.36256653
190	0x3d40157b	0.046895485
191	0x3e89f9f1	0.26948503
192	0x3d949809	0.07255561
193	0x3ecd46d1	0.4009309
194	0x3bb1b015	0.005422602
195	0x3d3c6f8a	0.04600481
196	0x3e561c91	0.20909335
197	0x3db1c76c	0.08680615
198	0x3e06a1ad	0.13147612
199	0xbdf551c1	-0.11978484
200	0xbde54661	-0.11195064
201	0xbf7e2ae0	-0.9928417
202	0xbf62b92e	-0.8856381
203	0x3dc4ffff	0.0961914
204	0x3ea22eb0	0.31676245
205	0x3c2f0f89	0.010684856
206	0x3b86f682	0.0041187415
207	0xbda9764d	-0.08274517
208	0xbd99ef7d	-0.07516382
209	0x3d3f8fc5	0.04676797
210	0xbf18a925	-0.59633094
211	0xbf9d94d6	-1.2311046
212	0x3cf284c4	0.029604323
213	0x3eccef46	0.400263
214	0xbd8cde97	-0.06878393
215	0x3d1853b6	0.037189208
216	0xbe13f8d6	-0.14450392
217	0xbec8f115	-0.3924643
218	0xbf20397e	-0.62587726
219	0xbe586c0e	-0.2113497
220	0xbd504962	-0.050851233
221	0x3b90ac38	0.0044150613
222	0x3d980537	0.0742287
223	0xbdcc9f74	-0.09991351
224	0x3bd57fca	0.006515478
225	0xbf0fb29e	-0.56131923
226	0x3c849fc5	0.016189465
227	0xbd4a22f7	-0.04934975
228	0xbdbfc569	-0.09363825
229	0xbe5b6b00	-0.21427536
230	0xbd6af733	-0.057364654
231	0xbd046414	-0.032322004
232	0xbecffefd	-0.40624228
233	0xbe570621	-0.20998432
234	0xbc256756	-0.010095438
235	0xbe158885	-0.1460286
236	0xbee3a9b8	-0.44465423
237	0xbdd71751	-0.10502494
238	0xbd8b0182	-0.06787397
239	0x3ec3d4b5	0.3824822
240	0x3da0c24c	0.07849559
241	0xbdee37c8	-0.11631733
242	0xbc86e8ba	-0.016468395
243	0x3d1eb918	0.038750738
244	0xbdd264e7	-0.10273152
245	0x3e6f3afb	0.23362343
246	0xbfd2b897	-1.6462582
247	0x3d87d335	0.066320814
248	0x3d90be9b	0.07067605
249	0xbb8e0d63	-0.004335092
250	0xbd5229ba	-0.051309325
251	0xbd996506	-0.07489972
252	0x3de01c50	0.109429
253	0xbd74d38d	-0.059772063
254	0xbce9cd47	-0.028540267
255	0xbdbaf756	-0.09129207

9.bias f4 [84]
0	0xbfad7738	-1.3552008
1	0x3f802c8b	1.0013593
2	0xbe63eb66	-0.22257766
3	0xbf3240fb	-0.696304
4	0xbf7d9c78	-0.9906688
5	0xbfec0f2a	-1.8442128
6	0x400fd32b	2.2472637
7	0x3fd82890	1.6887379
8	0xbec0b3ef	-0.37637278
9	0xbf00583e	-0.50134647
10	0xbeea56ff	-0.45769498
11	0xbf18e727	-0.5972771
12	0x3f0973d8	0.5369239
13	0xbe2fb09b	-0.17157213
14	0xbfffd9a9	-1.99883
15	0xbf8301b6	-1.0234897
16	0xbfdb7062	-1.7143672
17	0xbe10c0a4	-0.14135987
18	0xbf3a7a68	-0.7284303
19	0xbf0af550	-0.5428057
20	0xbd30180a	-0.042991675
21	0x3fd61e1d	1.672794
22	0x3fb8cc62	1.4437373
23	0xbf40bfef	-0.7529287
24	0xbeee39ba	-0.46528417
25	0xbf80bf69	-1.0058414
26	0x3ef5bf3b	0.4799746
27	0x3fe0431b	1.7520479
28	0xbf9e51af	-1.2368678
29	0x3f4e7e26	0.8066124
30	0xc0139843	-2.3061683
31	0xbcd84e9c	-0.026404671
32	0x3f278835	0.6544221
33	0xbe47774f	-0.19479106
34	0xbf9a3352	-1.2046912
35	0xbfb08d4e	-1.3793123
36	0xbe6d250b	-0.23158662
37	0xbf50a2fe	-0.81498706
38	0xbd1b04f5	-0.037846524
39	0xbec21f56	-0.37914532
40	0x40099274	2.1495638
41	0x3f559a54	0.8343861
42	0xbf91d425	-1.1392866
43	0x3ff417cc	1.9069762
44	0xbdf5961a	-0.1199152
45	0xbfa48ebb	-1.2856058
46	0x3fecf4aa	1.8512166
47	0xbf5dd3b2	-0.86651146
48	0xbfda1bb7	-1.7039708
49	0xbfea904a	-1.8325284
50	0xbe9374af	-0.2879996
51	0x403763aa	2.865458
52	0xbe4698a6	-0.19394168
53	0xbda0dbe4	-0.07854441
54	0xbdbdbb4a	-0.09264238
55	0xbf232071	-0.63721377
56	0xbeaac3fb	-0.33352646
57	0x3e087b02	0.13328174
58	0xbf5df264	-0.86697984
59	0x4034f9c7	2.8277452
60	0xbe4dbe8b	-0.20092218
61	0xbf867bcf	-1.0506533
62	0x3f9f367b	1.2438501
63	0x3ff8ead8	1.9446669
64	0x3f5e123d	0.8674658
65	0x40120f91	2.2822
66	0xbf3deee4	-0.74192643
67	0xbe8d91ab	-0.27650198
68	0x3e34e984	0.17667204
69	0xbfe1e4d8	-1.7647963
70	0x405a62d7	3.4122827
71	0xbf3d4c8d	-0.7394493
72	0xbf5e0c0a	-0.8673712
73	0x3f65b08d	0.8972252
74	0xbe80fdbe	-0.2519359
75	0xbfbba731	-1.4660398
76	0xbf478f4d	-0.77953035
77	0xc001f474	-2.0305452
78	0xbfad26b1	-1.3527433
79	0xbe77a7cb	-0.24185102
80	0x3f5d2c43	0.86395663
81	0xbf4bf408	-0.7966924
82	0xbefe7113	-0.49695644
83	0xbfa9adf1	-1.3256208

11.weight f4 [10, 84]
0	0xc042d6b6	-3.044355
1	0x3d1c129a	0.038103677
2	0xbe852bb7	-0.26009914
3	0xbf334af8	-0.7003627
4	0xbfa950ab	-1.3227743
5	0xc0135d63	-2.3025749
6	0xbe4ba475	-0.19886954
7	0xbd42a758	-0.047522873
8	0xbd98599e	-0.07438968
9	0xbd5632e8	-0.05229464
10	0xbfb75712	-1.4323447
11	0xbda367bd	-0.07978771
12	0xbfab9289	-1.3404094
13	0xbdf30f63	-0.11868169
14	0xbfadf79f	-1.3591193
15	0xbf99513c	-1.1977916
16	0xc108b214	-8.543476
17	0xbfa88560	-1.3165703
18	0xc0690623	-3.6409996
19	0xc08247c8	-4.0712624
20	0xc00d63e1	-2.2092211
21	0xbf13472d	-0.5753048
22	0xbf1640c7	-0.5869259
23	0xbf000cb8	-0.5001941
24	0xc01feb4a	-2.498736
25	0xc0276d82	-2.6160588
26	0xbed4e8ea	-0.4158395
27	0xbe11f38a	-0.14253059
28	0xbffa0f95	-1.9536005
29	0xbf276e20	-0.6540241
30	0xbf2824e3	-0.65681285
31	0xbf199afd	-0.6000212
32	0xbe8d4441	-0.27591136
33	0xbe37bdfc	-0.17943567
34	0xc00c9192	-2.196385
35	0xbf34d6bd	-0.70640165
36	0xbf0779f6	-0.5292047
37	0xbd68698f	-0.056741294
38	0xbd5548e5	-0.05207147
39	0xbe8712a8	-0.2638142
40	0xbe97ac34	-0.29623568
41	0xc0999291	-4.7991414
42	0xc00b8f82	-2.180634
43	0xbdefc93d	-0.11708305
44	0xbd1c553b	-0.03816722
45	0xbebede5e	-0.37279028
46	0xbebbd28f	-0.3668408
47	0xbf2d1e2d	-0.6762417
48	0xbfebebd9	-1.843135
49	0xbff0e9f7	-1.88214
50	0xc031cf0f	-2.7782629
51	0xbcdb2d46	-0.026754986
52	0xbe081999	-0.13291015
53	0x3dfe4f41	0.1241746
54	0x3c63c6c6	0.013902372
55	0xc0464bc1	-3.0983737
56	0xbe870c07	-0.26376364
57	0xc0193e5a	-2.3944306
58	0xbf99741b	-1.1988558
59	0xbb515e25	-0.0031946984
60	0xbeb079b6	-0.34467858
61	0xc04ae1a9	-3.1700232
62	0x3d6ab8af	0.057305034
63	0xbe8881f4	-0.26661646
64	0x3e5d1f67	0.2159401
65	0xbe048657	-0.12941872
66	0xbcd3e02a	-0.025863726
67	0xbf9ea928	-1.2395372
68	0x3dfcb489	0.12339122
69	0xc0205220	-2.5050125
70	0x3e69b594	0.22823173
71	0x3e066c6b	0.13127296
72	0xbf4801b8	-0.7812762
73	0xbf75152a	-0.9573542
74	0xbdfe4530	-0.1241554
75	0xbfe60fc1	-1.7973558
76	0xbcbe3e08	-0.023222938
77	0xbf8f6d3b	-1.120521
78	0xc0c8089f	-6.2510524
79	0xbe6ae6cb	-0.22939603
80	0x3e91f21f	0.28505036
81	0xbf8f303d	-1.1186596
82	0xbdfef445	-0.124489345
83	0xbfc4a79a	-1.5363648
84	0xc00ef1d9	-2.2335112
85	0xbdffe67b	-0.124951325
86	0xc0252370	-2.580288
87	0xbfa4d0b1	-1.2876188
88	0xc06ca2fd	-3.697448
89	0xbf799b32	-0.97502434
90	0x3e3907f6	0.18069443
91	0xbe353a00	-0.17697906
92	0xbdb186d1	-0.08668292
93	0xbea55677	-0.3229253
94	0xbf2a53c8	-0.6653409
95	0xbe9f4d9c	-0.311139
96	0xbe80a01f	-0.25122163
97	0xbde21005	-0.11038212
98	0xc05fe513	-3.4983566
99	0xbf2a9a65	-0.6664184
100	0xc014bcc0	-2.3240204
101	0xbfd4c45d	-1.6622425
102	0xbf8e2637	-1.1105412
103	0xbfd8e25b	-1.6944078
104	0xc0bff68c	-5.998846
105	0xbd5e6371	-0.054294053
106	0xbfedf005	-1.8588873
107	0xbfb9dd44	-1.452065
108	0xc089e060	-4.3086395
109	0xc0a87b36	-5.2650404
110	0xbdb054ee	-0.08609949
111	0x3d019363	0.0316347
112	0xbfd5fa9c	-1.6717105
113	0xbe9bf87a	-0.3046301
114	0xbfb1ebb9	-1.3900062
115	0xbe594914	-0.21219283
116	0xbfc8d33c	-1.5689464
117	0x3d59f5ab	0.053212803
118	0xbfbe9fde	-1.4892538
119	0xc000d38e	-2.0129123
120	0xc03f2f13	-2.9872482
121	0x3ecf5d32	0.4050079
122	0xbe57b3c6	-0.21064672
123	0xbe835fa0	-0.25658894
124	0xbd98ffaf	-0.07470643
125	0xbf47cf9c	-0.7805116
126	0xbf9fe128	-1.2490587
127	0xbe05cf99	-0.13067473
128	0xbd94c1ad	-0.07263503
129	0xc04f82b1	-3.2423518
130	0xbda58d46	-0.080835864
131	0xc057fe45	-3.3748944
132	0xbe421304	-0.18952566
133	0xc017e36d	-2.373256
134	0xbe6ee08d	-0.23327847
135	0x3cd69153	0.026192343
136	0xbd33b493	-0.04387338
137	0xc09db7ec	-4.9287014
138	0x3d9351b3	0.07193317
139	0xbf9923ac	-1.1964011
140	0xbf8fdec2	-1.1239855
141	0xbfe6447b	-1.7989649
142	0xbf582d5a	-0.844442
143	0x3cad30c0	0.02114141
144	0xbed58665	-0.41704097
145	0xbf052ced	-0.52021676
146	0xbe153819	-0.14572181
147	0xbe5acb1a	-0.2136654
148	0xbe9a6b32	-0.3015991
149	0xbf4fc4cc	-0.81159663
150	0xbea9c203	-0.33155832
151	0xc085e7f9	-4.184567
152	0x3d7f250a	0.062291183
153	0xc08538ee	-4.1631994
154	0xbdf16f3f	-0.11788797
155	0xbf45ec9e	-0.77314174
156	0xbfbf2151	-1.4932042
157	0xbd3642ba	-0.04449723
158	0xbcec9d2c	-0.02888354
159	0xbf31e16a	-0.6948458
160	0xbe2c1e53	-0.16808443
161	0xbf13dd0f	-0.57759184
162	0xc09addeb	-4.8395896
163	0xbdccb1c4	-0.099948436
164	0xbe297db1	-0.16551854
165	0xbff298e7	-1.8952912
166	0xbc1999bd	-0.009375033
167	0xbf893a09	-1.0720836
168	0xbf8a0206	-1.0781868
169	0xbdf922e2	-0.121648565
170	0xbfbd5c92	-1.4793875
171	0xbf3dd303	-0.74150103
172	0xc0dc6c96	-6.888255
173	0xbeb784c0	-0.35843468
174	0xbe580388	-0.21095097
175	0xbcee55fa	-0.029093731
176	0xbd62c718	-0.05536565
177	0xbe3be903	-0.18350606
178	0xbf84d0b8	-1.0376196
179	0xbd785807	-0.060630824
180	0xbe12bb63	-0.14329295
181	0xbd64bba9	-0.05584303
182	0xc06d3cc4	-3.7068338
183	0xc0026d1e	-2.03791
184	0xc0384d66	-2.879724
185	0xbff69724	-1.9264874
186	0xbf43369f	-0.7625522
187	0xbf09bcc7	-0.53803676
188	0xbebff497	-0.37491295
189	0xbed6ce25	-0.4195415
190	0xbe6d4d33	-0.2317398
191	0xbf8059e7	-1.0027436
192	0xbef8758f	-0.4852719
193	0xbe2d33f3	-0.16914348
194	0xbe2247b0	-0.15847659
195	0x3e8fa606	0.28056353
196	0xbf94bcf7	-1.1620167
197	0xbe85a278	-0.26100516
198	0xc0199704	-2.3998423
199	0x3deec804	0.11659244
200	0xbe06c4f1	-0.13161065
201	0xbcffa216	-0.031205218
202	0xbef40698	-0.4766128
203	0xbf93574c	-1.1511016
204	0xbf452230	-0.7700529
205	0xbc93946e	-0.018015113
206	0xbdad24f1	-0.08454312
207	0xbdf38965	-0.1189144
208	0xbdb4ce12	-0.08828367
209	0xbef73da5	-0.4828922
210	0xc04a6ace	-3.1627688
211	0x3e990248	0.29884553
212	0xbd1f7326	-0.038928173
213	0xbf32e86d	-0.69885904
214	0xbe2ce122	-0.16882756
215	0xbff59e7a	-1.9188988
216	0xbed6bd1c	-0.41941154
217	0xc018fdcc	-2.3904905
218	0xbf730751	-0.9493304
219	0xbe57e5d4	-0.21083766
220	0x3d077167	0.033067133
221	0xbf285ed5	-0.657697
222	0xbceb77d8	-0.02874367
223	0xbf469c15	-0.7758191
224	0xbe71e39e	-0.23621985
225	0xbf817218	-1.0112944
226	0xbfd1950c	-1.637361
227	0xbd8ccbe5	-0.06874827
228	0xbe7b8186	-0.24561128
229	0xc00a5148	-2.161211
230	0xbdcedcbd	-0.10100696
231	0xbe04ecc2	-0.12980941
232	0x3de13981	0.10997296
233	0xbe2d5c6a	-0.16929784
234	0xbff73c22	-1.9315226
235	0xbf4d51da	-0.8020302
236	0xbe5dc088	-0.21655476
237	0xbf661511	-0.89875895
238	0xbdc81c79	-0.09771056
239	0xbf2b7b29	-0.669848
240	0xbebdc835	-0.37066808
241	0xbee0c1bb	-0.43897805
242	0xbe8b7657	-0.27238724
243	0xbe463ee4	-0.19359928
244	0xbba3ea90	-0.0050023273
245	0xbedc543b	-0.43033013
246	0xc0c98e6e	-6.2986364
247	0xbddf4f35	-0.109037794
248	0xbbb1427f	-0.0054095383
249	0xbfe5e7ce	-1.7961366
250	0x3b81d3ba	0.0039620074
251	0xc0366f59	-2.8505461
252	0xbf23cc75	-0.6398385
253	0xbeb27a79	-0.34859064
254	0xc0544557	-3.3167322
255	0xbf946cbf	-1.1595687

11.bias f4 [10]
0	0xbe936c7f	-0.28793713
1	0xbfb10567	-1.3829774
2	0x3d850679	0.06495375
3	0xbe460ec5	-0.19341572
4	0x3e5a38f4	0.21310788
5	0x3efac6c8	0.48979783
6	0xbf087e8a	-0.53318083
7	0xbf363294	-0.71170926
8	0x3fc2b348	1.5210962
9	0x3d4c3d9d	0.049863447
